hw1/data/50EConvo.pt (torch, 62767 bytes, 8 tensors)

weight f4 [10, 1, 3, 3]
0.5240587 0.70612156 -0.26544312 -0.43480578 0.16125847 0.0006045242 -0.70609283 0.11566853
0.76691556 0.8763904 -1.1199986 -0.019747354 0.6091387 0.84836286 0.4181422 -0.2655266
-0.8523721 0.8409579 -0.21179643 -0.65394044 -0.09480407 -0.06936989 0.2319973 0.9788253
0.68826306 -0.07069591 -0.5592341 0.20107794 0.42280787 0.5912993 -0.6550525 0.21239719
-0.09992454 -0.66283387 -0.61033195 -0.82063156 -0.33239514 -0.65099996 0.14628398 -0.29257867
0.31079972 0.29626873 -0.49902412 -0.3773847 0.46582362 0.47532746 -0.44793218 -0.5590123
0.3364575 0.28906667 -0.44432744 0.24651839 -0.53655154 -0.2259515 0.35533792 0.3868019
-0.63950974 0.093177155 -1.2885343 -0.106726214 -0.99760056 0.28580546 0.7060792 -0.2631011
0.63502806 0.49922177 0.55960757 -0.05173093 -0.34929827 0.61014205 -0.4393617 -0.25383624
-0.6308034 -0.6035125 -0.46243644 0.14326395 0.2624342 -0.7432675 0.27403605 0.4672739
-0.02993336 0.65652764 -0.11412042 -0.7741049 0.5318885 -0.28251708 -0.17971942 -0.21457578
0.833828 0.4743753
00000000: b628 063f 62c4 343f 29e8 87be dd9e debe
00000010: f120 253e ef78 1e3a 80c2 34bf 9fe3 ec3d
00000020: 9454 443f 1f5b 603f 1d5c 8fbf 34c5 a1bc
00000030: 84f0 1b3f 4f2e 593f bc16 d63e 1af3 87be
00000040: 0f35 5abf 0449 573f 2ae1 58be a468 27bf
00000050: a328 c2bd cd11 8ebd b390 6d3e 4b94 7a3f
00000060: 0232 303f 04c9 90bd f729 0fbf 60e7 4d3e
00000070: 467a d83e 645f 173f 85b1 27bf a67e 593e
00000080: 3da5 ccbd 7baf 29bf b73e 1cbf e914 52bf
00000090: b22f aabe efa7 26bf 78cb 153e dfcc 95be
000000a0: 2421 9f3e 89b0 973e 1780 ffbe 9138 c1be
000000b0: 6f80 ee3e 1f5e f33e 5e57 e5be 6e1b 0fbf
000000c0: 2844 ac3e 8c00 943e e37e e3be 516f 7c3e
000000d0: 715b 09bf d45f 67be daee b53e e60a c63e
000000e0: e9b6 23bf aad3 be3d b1ee a4bf 4693 dabd
000000f0: c062 7fbf 1855 923e 9bc1 343f 30b5 86be
00000100: 3391 223f ff99 ff3e 7142 0f3f d0e3 53bd
00000110: 39d7 b2be 4532 1c3f 04f4 e0be d3f6 81be
00000120: 557c 21bf cc7f 1abf 78c4 ecbe c9b3 123e
00000130: c75d 863e c746 3ebf 744e 8c3e 863e ef3e
00000140: ce36 f5bc 3212 283f f7b7 e9bd bd2b 46bf
00000150: d829 083f 14a6 90be 5e08 38be c1b9 5bbe
00000160: c075 553f 52e1 f23e

bias f4 [10]
-0.8897385 -1.3126184 -1.0946962 -1.754484 -1.5532788 -1.4369925 -2.047222 -1.0282341
-1.5288388 -1.1600462
00000000: e7c5 63bf e103 a8bf 011f 8cbf ef92 e0bf
00000010: d7d1 c6bf 5fef b7bf af05 03c0 2d9d 83bf
00000020: fdb0 c3bf 657c 94bf

weight f4 [20, 10, 5, 5]
-0.08186208 0.23033056 0.29978767 0.19766784 0.05686321 0.2703415 0.253748 0.1053153
-0.050788593 -0.36832127 0.19993441 -0.022116859 0.07417129 -0.09379096 0.36971477 -0.17713082
-0.02259017 0.1390819 0.315905 0.49763498 -0.08373607 -0.39367974 -0.25820783 -0.07408527
-0.3475597 0.20698807 0.17695373 -0.06440397 -0.349592 0.15149838 -0.1488117 -0.05240891
-0.39292637 -0.47420114 -0.021908244 -0.50392157 -0.14027767 -0.32022753 -0.42208827 0.2049071
-0.29548904 -0.2506095 -0.17936939 -0.10487993 0.21115214 -0.025502829 -0.015370567 -0.09438614
0.092623815 0.1419398 -0.13200064 0.27611652 -0.09250853 -0.32212055 0.036277305 -0.09571595
-0.06944731 0.1917649 0.28356975 0.3316625 -0.37820777 -0.1698748 0.14543653 -0.17419326
0.0018456943 -0.45734292 -0.40148747 0.059547745 -0.22060326 0.13476199 -0.111949086 -0.25961182
-0.3192279 -0.0036040305 -0.067484155 0.27003458 -0.0683305 -0.24242158 -0.24722739 -0.01040463
0.3833491 -0.09541856 -0.40640047 0.06452219 0.0012007854 -0.14917001 -0.32213172 0.2044949
0.03724739 0.1209332 -0.34841406 0.2523679 0.13090543 0.096627265 0.48679507 -0.2595208
0.43206462 0.028797865 0.20409268 -0.04634737 -0.20173682 -0.11341573 -0.0806526 -0.06115428
-0.29321986 -0.19257374 0.07819172 0.05959163 0.18558477 0.012755242 0.43331417 0.29683936
0.15399908 -0.023959754 -0.07942119 0.11918527 0.050188363 0.10272042 0.0699476 -0.0642211
-0.084193066 -0.0019121204 -0.06318539 -0.27954596 -0.41182616 -0.038585242 -0.026230542 0.20698796
0.15368506 0.17419101 0.17349106 0.04317989 -0.038987897 0.061698735 -0.13950253 -0.21405782
0.2346847 0.037545316 0.15072829 0.09665611 -0.3464127 -0.23030181 -0.0899842 0.20543136
0.051579345 0.17861663 -0.29012677 0.02938519 -0.17850968 0.115265846 0.035144024 0.10163788
-0.3770857 0.057797667 0.22185948 0.064989 -0.15004238 -0.008142222 0.0459939 0.102476545
0.14994623 -0.29743308 -0.18729071 -0.14378741 -0.23069967 -0.18851326 -0.35037148 -0.3275334
-0.22535187 -0.40576735 0.36495614 0.32118616 0.26367587 0.26271456 -0.19500071 0.23935755
-0.24517201 -0.17172386 0.17195845 0.22068426 0.06713959 -0.09424964 0.4721494 0.087744445
-0.025513293 -0.32557443 0.06763252 0.0295615 0.1290687 0.20332344 -0.2523772 -0.23613487
-0.44000167 -0.49539834 -0.09157376 -0.067086644 -0.078923464 -0.12406209 -0.041556258 -0.25599393
0.15763345 -0.18534066 -0.3611705 -0.0051715053 -0.08602077 -0.41161445 -0.23302138 0.115788504
-0.22698873 -0.35502738 -0.66745627 -0.07346338 0.06352341 -0.368051 -0.39865914 -0.32659164
-0.079857565 0.11222453 0.19141525 -0.013784636 -0.030325145 0.6189191 0.32850137 -0.067439765
-0.24679302 -0.25165597 -0.48938593 -0.124042496 0.16866934 -0.08051174 -0.2931481 -0.49119842
-0.40455887 0.03939546 -0.14247425 -0.18554875 -0.12739563 -0.19105981 -0.11890888 0.19019298
-0.31541732 0.13442314 0.17533265 0.13097331 0.048906237 -0.09806033 -0.19597787 -0.4661011
-0.3167705 0.19292207 0.29930088 0.06468303 -0.08492272 -0.5390905 -0.44004524 0.11929639
00000000: 4ea7 a7bd c6db 6b3e c57d 993e 7069 4a3e
00000010: 66e9 683d 336a 8a3e 42eb 813e 8caf d73d
00000020: b307 50bd 9b94 bcbe 9bbb 4c3e 6a2e b5bc
00000030: 1ee7 973d 7a15 c0bd 414b bd3e c861 35be
00000040: 050f b9bc 7c6b 0e3e 4dbe a13e 03ca fe3e
00000050: d17d abbd 6490 c9be d133 84be 05ba 97bd
00000060: 58f3 b1be aef4 533e 5c33 353e 3be6 83bd
00000070: b9fd b2be 6422 1b3e 1862 18be baaa 56bd
00000080: a52d c9be 7eca f2be eb78 b3bc 0101 01bf
00000090: f3a4 0fbe ddf4 a3be f41b d8be 2bd3 513e
000000a0: 574a 97be e34f 80be 9cac 37be 4acb d6bd
000000b0: 4438 583e 4feb d0bc d5d4 7bbc 854d c1bd
000000c0: 8eb1 bd3d ab58 113e 2d2b 07be 255f 8d3e
000000d0: 1d75 bdbd fcec a4be 8397 143d b906 c4bd
000000e0: 643a 8ebd 055e 443e 0e30 913e abcf a93e
000000f0: 73a4 c1be a9f3 2dbe 50ed 143e b85f 32be
00000100: 39eb f13a da28 eabe c48f cdbe 56e8 733d
00000110: d2e5 61be 0cff 093e 9045 e5bd d7eb 84be
00000120: d771 a3be 9931 6cbb 2235 8abd f941 8a3e
00000130: dcf0 8bbd 5d3d 78be 2d29 7dbe 2e78 2abc
00000140: 5546 c43e ce6a c3bd b913 d0be 3624 843d
00000150: ac63 9d3a 06c0 18be 73ee a4be 1c67 513e
00000160: b890 183d d3ab f73d 5463 b2be 5e36 813e
00000170: 130c 063e 84e4 c53d 343d f93e e9df 84be
00000180: 9337 dd3e 80e9 eb3c acfd 503e bdd6 3dbd
00000190: 1994 4ebe 8246 e8bd 312d a5bd e97c 7abd
000001a0: ea20 96be 0d32 45be fb22 a03d 5a16 743d
000001b0: ef09 3e3e 5dfb 503c 5bdb dd3e 54fb 973e
000001c0: efb1 1d3e 3f47 c4bc 94a7 a2bd 6817 f43d
000001d0: 5092 4d3d 155f d23d b040 8f3d 5a86 83bd
000001e0: 6a6d acbd 1da0 faba 5767 81bd a620 8fbe
000001f0: e1da d2be 8f0b 1ebd 6fe1 d6bc a7f4 533e
00000200: 9e5f 1d3e 215f 323e a4a7 313e 65dd 303d
00000210: c6b1 1fbd d0b7 7c3d c0d9 0ebe f931 5bbe
00000220: 3051 703e 1ec9 193d 8458 1a3e a3f3 c53d
00000230: 015d b1be 3dd4 6bbe a349 b8bd 995c 523e
00000240: dd44 533d 47e7 363e 7f8b 94be 36b9 f03c
00000250: 3ecb 36be 8010 ec3d 2ef3 0f3d 8527 d03d
00000260: 6011 c1be 3fbd 6c3d 222f 633e f418 853d
00000270: b6a4 19be f466 05bc 1a64 3c3d 39df d13d
00000280: 818b 193e 2649 98be 23c9 3fbe 023d 13be
00000290: 893c 6cbe 9f09 41be e463 b3be 75b2 a7be
000002a0: a4c2 66be bdc0 cfbe 88db ba3e 8372 a43e
000002b0: 8600 873e 8682 863e 44ae 47be 251a 753e
000002c0: 5f0e 7bbe 61d8 2fbe e015 303e 0efb 613e
000002d0: 7b80 893d f505 c1bd 91bd f13e 5cb3 b33d
000002e0: 4101 d1bc b1b1 a6be eb82 8a3d f52a f23c
000002f0: 962a 043e 0534 503e 9637 81be 57cd 71be
00000300: e647 e1be daa4 fdbe 068b bbbd b964 89bd
00000310: a0a2 a1bd 4414 febd e536 2abd a311 83be
00000320: aa6a 213e f1c9 3dbe 57eb b8be bb75 a9bb
00000330: a82b b0bd 21bf d2be 289d 6ebe 8622 ed3d
00000340: bc6f 68be 26c6 b5be 6ade 2abf f873 96bd
00000350: 9018 823d 2e71 bcbe 0d1d ccbe 0537 a7be
00000360: 5d8c a3bd f9d5 e53d 5c02 443e f4d8 61bc
00000370: 706c f8bc 7b71 1e3f 5531 a83e dc1d 8abd
00000380: 4fb7 7cbe 0dd9 80be cb90 fabe fe09 febd
00000390: a8b7 2c3e 57e3 a4bd 8217 96be 5c7e fbbe
000003a0: 5722 cfbe 225d 213d c5e4 11be 7e00 3ebe
000003b0: 0074 02be 2fa5 43be 8086 f3bd f3c1 423e
000003c0: 617e a1be 38a6 093e 678a 333e de1d 063e
000003d0: e851 483d dbd3 c8bd 6cae 48be cea4 eebe
000003e0: be2f a2be 5d8d 453e f73d 993e 8978 843d
000003f0: f7eb adbd d601 0abf 9c4d e1be aa51 f43d

bias f4 [20]
-0.32332766 -1.0804459 0.23992595 -0.83541685 -0.41154203 -0.6091724 -0.24446113 0.022566764
-0.38286626 -0.7009874 -0.11521629 -0.426187 -0.36071056 -0.46879032 -0.59967786 -0.39885744
-1.6361865 -0.7493653 -0.21188314 0.15798208
00000000: 348b a5be 0d4c 8abf 26af 753e e1dd 55bf
00000010: a3b5 d2be b9f2 1bbf 0554 7abe efdd b83c
00000020: 0c07 c4be e973 33bf 85f6 ebbd 2f35 dabe
00000030: 0eaf b8be 4905 f0be 7d84 19bf 0b37 ccbe
00000040: 8f6e d1bf 68d6 3fbf e5f7 58be 0ec6 213e

weight f4 [50, 180]
0.014545396 0.051607575 0.16726995 0.040521685 0.044303287 0.05343705 -0.024797354 0.019603724
0.021007087 -0.51470745 -0.0007495608 0.017232504 -0.49325022 0.026421122 0.044154465 -0.0070177442
0.1945559 0.14034756 -0.42787853 -0.025725188 -0.44209045 0.50322133 0.043284427 -0.36500916
0.11253188 0.17960487 0.0070500067 0.18257257 -0.01872944 -0.1884692 0.035793494 0.07813198
0.01921338 0.026004279 -0.10221126 0.01997854 0.35141385 0.09047353 -0.17669308 0.08971732
0.014902956 0.3120593 -0.050096333 -0.21506368 -0.073500216 0.046700366 0.06820927 -0.19363785
0.31934944 -0.07756475 0.19112983 -0.04946182 0.05920457 0.35872254 0.14974281 -0.16579787
-0.18905176 -0.22793356 0.06754434 0.19127476 0.078021854 -0.19771911 -0.027998975 -0.22051004
-0.05901841 -0.043183006 -0.14018108 0.05428848 0.01529788 -0.15106739 0.05048337 -0.07716018
0.11149043 -0.059252404 -0.3427818 0.12111874 -0.11593087 -0.09228329 0.0070656664 0.04684135
-0.035615206 0.31774384 -0.034633167 -0.0011281882 -0.22232725 -0.1692098 0.24378583 0.14841327
-0.27671018 -0.12187924 -0.0020560042 -0.28634107 -0.3459285 0.06558211 0.10282261 0.16005625
0.011868231 0.16696893 -0.023719048 0.03821831 0.18451315 0.015332478 -0.6709214 0.24319284
0.3350399 -0.38366005 -0.090613864 0.11629154 0.12018854 0.054426353 -0.01859744 0.024402462
0.00033407673 0.08487433 -0.050603632 -0.03931947 -0.17620847 0.108306386 0.037400626 -0.049629282
0.053021695 0.11199226 0.16089822 0.013576916 0.03147417 0.22453545 0.024330888 0.14656612
0.2946251 -0.5079235 0.009974069 -0.035826523 -0.19309033 0.16118889 0.0899861 -0.5141664
0.066394724 0.13440895 -0.34598726 -0.13218658 0.08675376 -0.20907973 -0.06177526 -0.019099353
-0.48520204 -0.5071043 0.02267398 -0.11019918 0.1815271 0.22996289 0.1369716 -0.017713318
0.062985085 -0.13640107 0.0071536605 -0.0089180255 -0.1314383 0.19874331 0.12796555 -0.020564893
-0.068533465 0.09651439 -0.47901002 -0.45786127 -0.090056375 0.13108127 -0.13594458 0.19339763
0.06741747 -0.09954039 0.09420474 -0.2978088 -0.15703756 0.15146765 -0.06075677 -0.08558038
0.09387939 -0.06759203 0.06734819 -0.12948418 0.27190238 -0.011884844 -0.3263854 0.11393911
0.11960973 -0.35729387 -0.008891543 -0.108651906 -0.15841942 0.19228625 -0.15494302 -0.34516358
0.21871851 -0.045262855 0.12466809 0.017664568 -0.004889126 -0.20708719 0.17527293 0.02254278
-0.01854038 -0.06412146 -0.28225052 0.31271717 -0.061298728 -0.0815531 -0.27875614 0.03425742
-0.039905418 0.099253476 0.0050758054 0.0042934236 0.3504495 -0.045686502 -0.04317546 -0.25944483
0.020908441 -0.13421716 0.28572565 0.13305183 0.07430711 -0.5748344 0.07201428 0.16490355
-0.20285818 -0.023879204 0.03500656 -0.18795842 -0.12953223 -0.05016533 0.24201338 0.23797528
0.052010667 -0.08662624 -0.10374097 -0.3590727 -0.25660908 0.18963394 -0.1883675 -0.33482787
0.18939717 0.21346663 -0.13914298 0.0003929239 -0.43402562 -0.32263198 0.06613953 -0.061519045
-0.14167175 0.17677866 0.00020276503 0.25042215 -0.00324397 -0.15060729 0.4457225 -0.05233688
00000000: d04f 6e3c 7762 533d d048 2b3e 11fa 253d
00000010: 5d77 353d cfe0 5a3d d223 cbbc fd97 a03c
00000020: 0e17 ac3c dec3 03bf 2c7e 44ba 2e2b 8d3c
00000030: 4b8b fcbe 1c71 d83c 50db 343d 1bf5 e5bb
00000040: a939 473e 45b7 0f3e e512 dbbe a1bd d2bc
00000050: ae59 e2be 1dd3 003f 034b 313d 7be2 babe
00000060: 1d77 e63d 57ea 373e be03 e73b 4ef4 3a3e
00000070: 7c6e 99bc 12fe 40be 339c 123d a903 a03d
00000080: 6165 9d3c ed06 d53c 2354 d1bd 09aa a33c
00000090: 84ec b33e 304a b93d 08ef 34be b7bd b73d
000000a0: 872b 743c 3dc6 9f3e d031 4dbd a739 5cbe
000000b0: 4887 96bd e248 3f3d 4db1 8b3d 0049 46be
000000c0: c581 a33e 45da 9ebd 8ab7 433e 7a98 4abd
000000d0: 7e80 723d 7baa b73e 2e56 193e ebc6 29be
000000e0: c996 41be 6a67 69be b054 8a3d 88dd 433e
000000f0: ecc9 9f3d e176 4abe 1b5e e5bc 62cd 61be
00000100: 4abd 71bd aae0 30bd a18b 0fbe 995d 5e3d
00000110: f6a3 7a3c 69b1 1abe a6c7 4e3d 2806 9ebd
00000120: 1855 e43d a6b2 72bd 1981 afbe 1a0d f83d
00000130: 2a6d edbd 06ff bcbd 1b87 e73b b7dc 3f3d
00000140: 40e1 11bd 52af a23e 82db 0dbd b7df 93ba
00000150: c1a9 63be 5545 2dbe fea2 793e a6f9 173e
00000160: f5ac 8dbe d39b f9bd 07be 06bb 4c9b 92be
00000170: 8a1d b1be ea4f 863d a994 d23d c9e5 233e
00000180: f872 423c e7f9 2a3e 734e c2bc cd8a 1c3d
00000190: 04f1 3c3e 1335 7b3c 81c1 2bbf 8b07 793e
000001a0: 5a8a ab3e 176f c4be c393 b9bd 422a ee3d
000001b0: 6925 f63d 2bee 5e3d a959 98bc ace7 c73c
000001c0: 0527 af39 98d2 ad3d c145 4fbd 740d 21bd
000001d0: fe6f 34be bdcf dd3d 6631 193d 1348 4bbd
000001e0: 472d 593d 335c e53d 81c2 243e b771 5e3c
000001f0: 0feb 003d 9fec 653e 9251 c73c 6e15 163e
00000200: 1ad9 963e 4607 02bf 476a 233c d5be 12bd
00000210: 79b9 45be b30e 253e a24a b83d 69a0 03bf
00000220: f5f9 873d 80a2 093e 3e25 b1be eb5b 07be
00000230: f5ab b13d ff18 56be 0e08 7dbd 3f76 9cbc
00000240: 676c f8be 96d1 01bf c8be b93c 1cb0 e1bd
00000250: 3de2 393e 647b 6b3e 4842 0c3e 851b 91bc
00000260: 53fe 803d b9ac 0bbe 4169 ea3b e91c 12bc
00000270: c397 06be 5e83 4b3e 6709 033e b577 a8bc
00000280: 465b 8cbd 56a9 c53d cd40 f5be cb6c eabe
00000290: 7a6f b8bd 2b3a 063e 0e35 0bbe 070a 463e
000002a0: 2c12 8a3d d5db cbbd 6aee c03d 657a 98be
000002b0: 74ce 20be 561a 1b3e 17dc 78bd c444 afbd
000002c0: d643 c03d b16d 8abd d9ed 893d 8097 04be
000002d0: ca36 8b3e a6b8 42bc fd1b a7be e858 e93d
000002e0: f2f5 f43d 39ef b6be d6ad 11bc e484 debd
000002f0: b338 22be b0e6 443e 62a9 1ebe 48b9 b0be
00000300: bff7 5f3e 8b65 39bd fc51 ff3d 49b5 903c
00000310: f634 a0bb aa0e 54be bf7a 333e a3ab b83c
00000320: ffe1 97bc 1d52 83bd 2483 90be 771c a03e
00000330: 6014 7bbd 5005 a7bd 20b9 8ebe 8251 0c3d
00000340: dd73 23bd 6845 cb3d f152 a63b d9af 8c3b
00000350: 1e6e b33e c521 3bbd c0d8 30bd f4d5 84be
00000360: 2e48 ab3c 3970 09be a24a 923e bd3e 083e
00000370: 532e 983d 5928 13bf 397c 933d 7adc 283e
00000380: 0eba 4fbe 529e c3bc 0a63 0f3d 2c78 40be
00000390: 19a4 04be 297a 4dbd 5bd2 773e cbaf 733e
000003a0: 2309 553d 1969 b1bd 2576 d4bd 60d8 b7be
000003b0: 4462 83be 662f 423e 69e3 40be 8f6e abbe
000003c0: 55f1 413e ff96 5a3e 7f7b 0ebe 5a01 ce39
000003d0: 9b38 debe 0530 a5be 2974 873d 65fb 7bbd
000003e0: 6612 11be 7705 353e 539d 5439 5537 803e
000003f0: c998 54bb cc38 1abe bd35 e43e 325f 56bd

bias f4 [50]
0.13448554 -0.4290561 -0.16288796 0.7391467 0.72447073 0.08528541 0.79906756 -0.03319854
1.1385746 0.40173656 0.4310598 -0.0023483685 0.0974867 0.7665454 0.8221936 0.1944467
0.07747103 0.98603487 0.6573797 -0.094176345 0.28724024 -0.21287772 0.55129826 0.65158886
0.16422284 0.38194472 0.2458326 0.24378103 -0.055542625 -0.30542126 0.13770626 0.16886978
-0.62025154 0.1010916 -0.25367907 1.1280615 0.26980773 -0.39734772 1.2285962 -0.055163387
-0.20974411 -0.05237386 -0.0020504706 -0.65330756 0.3161738 -0.2881755 0.09474139 -0.06876895
0.29350674 0.49672666
00000000: 94b6 093e 3ead dbbe 1acc 26be b838 3d3f
00000010: ea76 393f 1eaa ae3d b18f 4c3f 31fb 07bd
00000020: d0bc 913f 6ab0 cd3e dfb3 dc3e 16e7 19bb
00000030: 1ba7 c73d 523c 443f 487b 523f 091d 473e
00000040: 22a9 9e3d c86c 7c3f 094a 283f 87df c0bd
00000050: 2711 933e 9efc 59be e221 0d3f 87ce 263f
00000060: 082a 283e 428e c33e 8bbb 7b3e bca1 793e
00000070: aa80 63bd 2d60 9cbe df02 0d3e 33ec 2c3e
00000080: cec8 1ebf 1d09 cf3d 39e2 81be 5264 903f
00000090: 3d24 8a3e 2971 cbbe a442 9d3f 01f3 61bd
000000a0: 29c7 56be f985 56bd 3061 06bb 2a3f 27bf
000000b0: 88e1 a13e bd8b 93be c607 c23d bcd6 8cbd
000000c0: 8446 963e f552 fe3e

weight f4 [10, 50]
-0.41361633 -0.34730816 0.25789562 0.38035998 -0.32283264 0.4828618 -0.42090312 -0.028414229
-0.047084708 0.380275 0.22303022 0.16894624 0.26869854 -0.45681822 -0.3298773 0.29600358
-0.42246705 -0.630322 0.34988987 -0.027077856 0.31724274 0.028718395 -0.41022465 -0.20116666
0.32510212 -0.30595222 -0.11281754 -0.31674895 -0.029098455 0.4473807 -0.22909945 0.32518128
-0.09335847 -0.3125401 -0.44581982 -0.14891581 0.44504747 -0.2259916 -0.37633473 0.23791037
-0.2820727 -0.1471947 -0.29530528 0.09835257 -0.49076465 -0.25539705 0.23920868 -0.32868946
0.30405882 -0.36200437 -0.18395981 -0.24914683 -0.31947243 0.26694214 0.41270888 -0.19546065
0.44074503 -0.19538355 0.4077858 -0.34966472 -0.5893253 -0.57218117 -0.57406014 0.35226554
0.5671045 -0.5901034 -0.10844613 0.37490013 0.22143355 -0.15460221 -0.20558214 -0.64630455
0.25831342 0.32287621 -0.24548417 0.28280714 -0.25349027 -0.23799819 -0.23281838 -0.5791043
-0.06219205 -0.2610925 -0.31378448 -0.10554788 -0.30009437 0.42934433 -0.41336197 -0.25278494
0.37219524 -0.23600368 -0.3979889 -0.481315 -0.1798409 -0.44165426 -0.18274456 -0.37641352
-0.3250328 -0.43244255 -0.17321613 0.2235879 0.30294576 -0.19663753 -0.32454726 0.28982353
0.43373302 -0.40639585 0.21461615 0.0842081 -0.17382632 -0.018381147 -0.07179994 -0.46972057
0.20378245 0.37088233 -0.0009280989 -0.23521206 0.086886615 -0.24723454 -0.2750195 -0.11114589
0.2468628 -0.23597717 -0.5458445 0.39481106 0.3261581 0.23739547 0.05056453 -0.15199582
0.366626 0.04168647 0.40898198 -0.14809452 0.31601992 -0.17097741 -0.08404568 -0.04399043
-0.35098282 0.28880373 -0.09055494 -0.09149745 0.016039819 -0.06448229 -0.100705095 0.28569406
-0.10064657 0.058530446 0.19329515 0.14156894 0.26769266 -0.18669079 0.39567113 0.36135653
-0.1316809 -0.26068422 0.41796392 -0.16606148 -0.3502718 -0.16953419 -0.10245559 -0.14186132
-0.13743925 -0.26355317 -0.19265683 0.42600846 -0.4139203 -0.16319497 0.42635503 -0.2648065
-0.4046175 0.33855304 -0.11425368 -0.3073983 -0.31626227 -0.16089723 -0.09643913 -0.054670658
-0.13849829 0.27169406 0.09220873 0.25505835 0.0095513 0.3630858 0.17170185 0.3334144
-0.09746435 -0.17299125 -0.058814667 0.32505542 -0.18662114 -0.23900765 -0.22614376 -0.1796248
0.40647277 -0.091379635 -0.03707478 0.33862022 -0.10372083 -0.0025337166 0.27638522 0.24411309
-0.14610144 -0.19619285 -0.17804629 0.05713901 -0.19347371 -0.3101245 0.44202 0.11493098
0.04914217 -0.052097853 -0.13664335 0.38381773 0.25279135 -0.2226606 0.5784207 -0.25224558
0.37601274 0.44659725 0.04889683 -0.1436545 0.038264256 0.43728775 0.30886617 0.1105251
-0.09002753 -0.19137515 0.39142743 -0.05633471 0.011591418 -0.21345513 0.34124455 -0.44307953
-0.1068853 -0.1843833 0.39590505 -0.1161895 0.09290898 -0.26405168 0.19794914 0.23785216
0.28805238 0.4672667 -0.050040465 0.21915933 0.5461925 -0.43439186 0.12047338 0.32632393
-0.357638 -0.11079104 0.025959665 0.36085722 0.4356395 -0.14205708 -0.18475968 0.32439077
00000000: 85c5 d3be 60d2 b1be e50a 843e 8bbe c23e
00000010: 524a a5be a939 f73e 9d80 d7be f5c4 e8bc
00000020: e5db 40bd 68b3 c23e 0962 643e 3e00 2d3e
00000030: db92 893e 14e4 e9be ade5 a8be c88d 973e
00000040: 9a4d d8be c85c 21bf c424 b33e 61d2 ddbc
00000050: a46d a23e d742 eb3c f708 d2be a2fe 4dbe
00000060: c973 a63e c5a5 9cbe e20c e7bd eb2c a2be
00000070: e25f eebc 150f e53e 0c99 6abe 297e a63e
00000080: ba32 bfbd 4205 a0be 7f42 e4be 637d 18be
00000090: 43dd e33e 586a 67be f2ae c0be c79e 733e
000000a0: d56b 90be 35ba 16be 4132 97be 126d c93d
000000b0: 8145 fbbe 67c3 82be 1ff3 743e fc49 a8be
000000c0: 99ad 9b3e a358 b9be f65f 3cbe 5920 7fbe
000000d0: e491 a3be a4ac 883e 944e d33e d626 48be
000000e0: 55a9 e13e a012 48be 4dc9 d03e 4107 b3be
000000f0: 06de 16bf 777a 12bf 9bf5 12bf 265c b43e
00000100: c32d 113f 0411 17bf 0119 debd e9f2 bf3e
00000110: 7abf 623e 0b50 1ebe 2084 52be 3774 25bf
00000120: a841 843e 0850 a53e 3460 7bbe 19cc 903e
00000130: 7ac9 81be ccb5 73be f167 6ebe 2e40 14bf
00000140: 17bd 7ebd ebad 85be 5ca8 a0be 7d29 d8bd
00000150: f8a5 99be 05d3 db3e 2ea4 d3be 076d 81be
00000160: 6090 be3e f3aa 71be 33c5 cbbe eb6e f6be
00000170: 3628 38be 8220 e2be 6421 3bbe 46b9 c0be
00000180: b36a a6be 1c69 ddbe 925f 31be 3af4 643e
00000190: b51b 9b3e 595b 49be 0f2b a6be c063 943e
000001a0: 4112 de3e 1e13 d0be 56c4 5b3e 4c75 ac3d
000001b0: 87ff 31be 0f94 96bc d90b 93bd 377f f0be
000001c0: 59ac 503e 4ae4 bd3e aa4b 73ba 6edb 70be
000001d0: 9cf1 b13d 0d2b 7dbe 5bcf 8cbe 75a0 e3bd
000001e0: 9ac9 7c3e 00a4 71be 77bc 0bbf ad24 ca3e
000001f0: 32fe a63e cc17 733e c11c 4f3d cba4 1bbe
00000200: 67b6 bb3e 6fbf 2a3d 1666 d13e 17a6 17be
00000210: 5dcd a13e b414 2fbe 2420 acbd 4f2f 34bd
00000220: 05b4 b3be 15de 933e de74 b9bd 0463 bbbd
00000230: f065 833c 4a0f 84bd 793e cebd 7e46 923e
00000240: ca1f cebd 9fbd 6f3d 2aef 453e 73f7 103e
00000250: 030f 893e df2b 3fbe 6895 ca3e b903 b93e
00000260: 5cd7 06be 6778 85be 5eff d53e 050c 2abe
00000270: d356 b3be 5f9a 2dbe 3dd4 d1bd 1844 11be
00000280: e0bc 0cbe 71f0 86be d547 45be c81d da3e
00000290: 5ded d3be 951c 27be 354b da3e b894 87be
000002a0: 062a cfbe d356 ad3e d5fd e9bd 4f63 9dbe
000002b0: 21ed a1be 3ec2 24be e181 c5bd 57ee 5fbd
000002c0: 7fd2 0dbe 7c1b 8b3e eed7 bc3d 0297 823e
000002d0: 0e7d 1c3c 62e6 b93e 9cd2 2f3e 4bb5 aa3e
000002e0: 649b c7bd 9e24 31be a6e7 70bd aa6d a63e
000002f0: 9d19 3fbe 6cbe 74be 3b92 67be 90ef 37be
00000300: 331d d03e 3f25 bbbd b9db 17bd a15f ad3e
00000310: 966b d4bd b60c 26bb 5d82 8d3e c8f8 793e
00000320: 9e9b 15be c7e6 48be c451 36be 980a 6a3d
00000330: f91d 46be a3c8 9ebe 7250 e23e ef60 eb3d
00000340: 4d49 493d 8f64 55bd 3cec 0bbe c283 c43e
00000350: de6d 813e 2401 64be 6113 143f 5526 81be
00000360: be84 c03e 65a8 e43e 0b48 483d 2a1a 13be
00000370: fbba 1c3d 2ee4 df3e b523 9e3e fc5a e23d
00000380: 5b60 b8bd d9f7 43be 2d69 c83e 3abf 66bd
00000390: eee9 3d3c fb93 5abe 9bb7 ae3e 52db e2be
000003a0: aee6 dabd face 3cbe 11b4 ca3e c3f4 edbd
000003b0: 1047 be3d c831 87be 2eb3 4a3e 848f 733e
000003c0: 9a7b 933e 953d ef3e 3bf7 4cbd 4e6b 603e
000003d0: 46d3 0b3f 9c68 debe bfba f63d ee13 a73e
000003e0: 541c b7be 6ae6 e2bd 5da9 d43c 47c2 b83e
000003f0: 240c df3e 6977 11be a431 3dbe 8c16 a63e

bias f4 [10]
0.5253082 1.9737825 0.30230483 0.010963744 -0.31770667 -0.052721616 -0.43501562 -0.6356137
0.16629921 -1.0821295
00000000: 997a 063f e8a4 fc3f b3c7 9a3e 46a1 333c
00000010: 73aa a2be 9ff2 57bd 5eba debe 94b7 22bf
00000020: 574a 2a3e 3883 8abf
