hw1/data/firstModel.pt (torch, 24095 bytes, 5 tensors)

weight f4 [100, 1]
000000 32 15 0d bc 89 60 74 bf 01 2d 25 bf 7c 5e 49 bf
       -0.00861101 -0.954598 -0.64521796 -0.78659797
000010 e0 2b 01 bb 8d 0b 2e 3f d8 e2 5a bd ce 5f eb bc
       -0.001970999 0.67986375 -0.05343899 -0.028732207
000020 c6 cd d3 bc ea 49 b8 3e 83 17 cb 3f 61 c3 15 bc
       -0.025854956 0.35993892 1.586655 -0.00914082
000030 e8 3f 65 bc a5 2f 37 be 2c 38 8b 3f ca 41 08 bd
       -0.013992287 -0.17889269 1.0876517 -0.033265866
000040 18 e9 c4 bc fe 0d 36 bd 6e 89 1d 3f 95 cb 2d bd
       -0.024036929 -0.044446938 0.61537826 -0.04243048
000050 e4 0a ae 3b 43 4d bd be 4d 6c 5b bf 63 b9 10 bd
       0.005311357 -0.3697301 -0.8571213 -0.03533305
000060 94 5c ca 3d 26 46 83 bd a7 b2 3c 3f b1 57 1b bc
       0.09880939 -0.06409864 0.737101 -0.0094813565
000070 3f 9e 1b bd 54 e1 90 bc ac 54 17 bc 1a d1 39 bd
       -0.037992712 -0.01768557 -0.009236496 -0.04536543
000080 35 1e 4f be f6 76 56 bc 93 30 48 bd e8 1f 82 bf
       -0.20226367 -0.013089886 -0.04887445 -1.0165987
000090 63 60 af 3f 78 f1 53 bc a2 fb b1 bc 9c e7 18 3e
       1.370129 -0.012935989 -0.021726433 0.14932102
0000a0 6e 66 9c 3e 46 4d 78 bd 2c 7f 00 3b b2 d9 16 bd
       0.30546898 -0.06062057 0.001960705 -0.036828704
0000b0 bb 87 a5 bf 92 49 a5 bc 9a b4 1d 3f c5 de 6c bd
       -1.2932047 -0.020176683 0.616037 -0.057829637
0000c0 71 70 2c bf 9a 58 f9 38 d6 8a 98 3f 4a 37 2f c0
       -0.6735907 0.000118897486 1.1917369 -2.7377496
0000d0 40 4d ac 3f 7b f0 3c bf 39 9d 93 3f b2 1f 59 be
       1.3461075 -0.73804444 1.1532356 -0.21203497
0000e0 95 c2 aa bc b0 63 13 3c 1c 1c eb 3e e4 32 69 3f
       -0.020844737 0.008995935 0.45919883 0.9109328
0000f0 7d 1a b6 bf 22 fd 81 3f 90 3b c0 3f 32 ec ee bc
       -1.4226834 1.0155375 1.5018177 -0.029165361
000100 19 3d bd 3d 9f 10 7b bc 27 8b 99 bf 02 ab 31 bd
       0.09240169 -0.015323787 -1.1995591 -0.043375976
000110 4e f9 89 3f 8e 0c 05 bc 63 91 57 3c f5 a1 73 3f
       1.0779207 -0.008120669 0.0131572215 0.95169
000120 c0 95 ec 3d c5 c2 d5 3b 53 66 ba bc 2e 30 4f 3f
       0.11552 0.0065234625 -0.02275387 0.8093289
000130 3d ae 56 3f 41 59 91 bc 30 1d 9e bf 86 fa 6b bc
       0.83859617 -0.017742755 -1.2352657 -0.014402991
000140 c4 4e 20 bc fe 58 7c 3f aa bf a9 3f a4 a9 92 bc
       -0.009784404 0.9857329 1.3261616 -0.017903157
000150 2d 62 89 bf 14 8c b8 bc 28 27 9c bc 8c 01 67 bf
       -1.0733086 -0.022527732 -0.01906164 -0.90236735
000160 fd 64 bc bb c7 7b 03 bd b3 c9 09 bd 92 ff 91 bf
       -0.0057493434 -0.032100465 -0.03363962 -1.1406119
000170 af c4 46 3f cb 7e a9 bd 30 ab 48 3f 3e 98 00 bd
       0.77643865 -0.08276137 0.7838621 -0.03139519
000180 e3 2b d8 bc b5 f5 34 bc 2e a3 03 be b0 7f d5 3e
       -0.026388114 -0.011044909 -0.12855217 0.4169898

bias f4 [100]
000000 0b 6a ad bc 66 66 83 3e ad b1 d1 3e 63 ba 03 3f
       -0.02116873 0.2566406 0.40955868 0.5145628
000010 88 76 92 bc ec a0 0f bf 3f 3f 87 bc 14 45 06 bb
       -0.017878786 -0.5610492 -0.01650965 -0.002048795
000020 9c 8c 78 bb 5d 18 92 be 69 39 8d bd d2 b3 03 bd
       -0.0037925607 -0.28534213 -0.06895716 -0.032153912
000030 5b 6e 50 ba 84 2b c8 bb a4 fc 45 bf 7e 70 29 bc
       -0.00079510146 -0.006108703 -0.77338624 -0.010341762
000040 75 e2 9e bc e2 12 31 bb 5b ae ff be 2d 5c 83 bb
       -0.019395093 -0.0027019312 -0.4993771 -0.004008791
000050 b5 b7 88 bc ec 03 15 3c a9 ed b1 3e a6 d7 8e bc
       -0.01668916 0.009095173 0.34751633 -0.017436814
000060 a2 3d a5 bd 5f c0 bf bc 41 e1 8d bd a2 df 7c bc
       -0.08068396 -0.02340716 -0.069277294 -0.015434178
000070 a0 fb 90 bb 08 01 6e bc 95 e2 9a bb 96 9f fd ba
       -0.0044245273 -0.014526613 -0.0047267177 -0.0019349928
000080 dc ee ef bc bd 44 13 bc aa bb 1a bb 48 a7 8b 3e
       -0.029288702 -0.008988556 -0.0023610392 0.27276063
000090 0d 7f 8b bd 59 85 22 bc a6 69 83 bb 88 e0 15 be
       -0.068113424 -0.009919488 -0.004010397 -0.14636433
0000a0 3a dc 7b be 59 83 d0 b8 1c 6c 9d bb 6f cf df bc
       -0.24595729 -9.942678e-05 -0.0048041474 -0.027320592
0000b0 bd d8 b5 3e cd af 60 bc da 1d fb be da b8 2c bd
       0.3551692 -0.013713789 -0.49046212 -0.042168476
0000c0 ad 3d 8b 3e 95 38 68 bc 75 e2 58 bf 45 16 6f 3d
       0.27195492 -0.014173646 -0.84720546 0.058370847
0000d0 4a 9b cb be 00 6b 9d 3e c8 09 9f bd 49 82 56 bb
       -0.39766914 0.30745697 -0.077655375 -0.0032731465
0000e0 3f 98 12 bd a4 2b b9 bc f0 93 b0 be 49 6b 22 bf
       -0.035789724 -0.022603817 -0.34487867 -0.63444954
0000f0 bc 77 cb 3e 1f b0 34 bf 4d fe 40 bf ec 41 79 bc
       0.39739788 -0.7058124 -0.7538803 -0.015213471
000100 94 f8 9c bd 42 2a 20 bb dc e9 0b 3f 61 9f 32 bb
       -0.076646 -0.002443925 0.54653716 -0.0027255642
000110 b2 c4 47 bf a7 29 bb bc c2 5d 51 bc 27 03 38 bf
       -0.7803451 -0.02284701 -0.012778701 -0.7187981
000120 fa 54 e5 bd 70 2d 7a bc 73 a7 b0 bc 20 c7 1d bf
       -0.111978486 -0.015269622 -0.021564221 -0.61631966
000130 27 80 85 be 2b 42 55 bc b3 5c ac 3e 29 25 a3 bc
       -0.26074335 -0.013016264 0.33664474 -0.01991518
000140 3f 44 e3 bc e8 c8 36 bf f4 6b 9d bd 78 d7 91 bc
       -0.027742503 -0.7140031 -0.07686606 -0.017802939
000150 d0 24 e6 3e d1 7e cf bb 69 12 bb bc b1 e4 10 3f
       0.4494996 -0.0063322564 -0.022835927 0.56598955
000160 16 2c 51 bc 89 74 db bb 3f f8 02 bd 56 e1 a0 3e
       -0.012766859 -0.0066972417 -0.031975027 0.31421918
000170 0d 80 16 bf 72 6a 97 39 ac ff 16 bf 4d 37 df bc
       -0.5878914 0.00028880272 -0.58983874 -0.02724805
000180 04 e1 c3 bc 15 37 4b bc 91 60 af bc df 54 ac be
       -0.023911007 -0.012403269 -0.021408351 -0.33658502

weight f4 [50, 100]
000000 05 5d 63 3e 80 1f 4f 3d ac 97 62 bd a6 00 84 3d
       0.22203453 0.05056715 -0.055320427 0.06445436
000010 84 1c 9f 3e 1b bb 14 3e d0 61 97 3e 82 95 94 3e
       0.31076443 0.145245 0.29566813 0.29020315
000020 2a af 92 3d a4 67 9f 3e cc 96 ca 3d 6e 0a 48 3e
       0.07162316 0.3113376 0.098920435 0.19535229
000030 02 d3 28 3e 33 7f 79 3e c4 d6 76 3e cf ba 9a 3e
       0.16486743 0.24364929 0.24105364 0.3022065
000040 c9 bf 41 38 79 a4 82 3d 02 57 21 3e cf ee e0 3d
       4.61934e-05 0.06379027 0.15755847 0.10983049
000050 a9 bc 4b 3e 52 8b a6 3b f2 dd 3e bc cd ee c3 3d
       0.19896187 0.0050825262 -0.011649596 0.09567032
000060 f6 cd 81 3e a4 4c 5e 3e 6b 30 4e bd 97 85 5f 3e
       0.25352448 0.21708924 -0.050339144 0.21828304
000070 44 1c ac 3e 24 ff 2a 3e 38 05 6e 3e 14 92 ca 3d
       0.33615315 0.16698891 0.23244178 0.098911434
000080 35 6d da 3d cf 8e 8b 3e 53 89 3c 3e 9a ae b1 bd
       0.10665361 0.27257392 0.1841176 -0.08675881
000090 20 dc 8d bd 5a 7c 3f 3e 4c 53 06 3e fd b1 1b 3e
       -0.06926751 0.1869978 0.13117713 0.15204616
0000a0 9d 68 c3 bc 8f 78 8d 3e 79 5f 52 3e 3c 34 28 3e
       -0.023853594 0.2763104 0.20544232 0.16426176
0000b0 0e e8 e8 bd 13 0a d8 3e 85 39 ee 3d fc 5c 8e 3e
       -0.11372386 0.42195186 0.11632065 0.27805316
0000c0 27 dd 81 bd ab 1a 00 3e 33 f0 78 3e 9f 9f 37 3d
       -0.063410096 0.12510173 0.24310379 0.04482996
0000d0 27 51 11 3e af d3 80 bc 18 0b 4c bd cc d2 00 3e
       0.14191113 -0.015725939 -0.049815267 0.12580413
0000e0 43 ea 51 3c 1c 89 15 3e b7 64 58 3d 24 93 e3 3d
       0.0128122 0.14603084 0.052830424 0.11112049
0000f0 80 f2 eb bd 11 3c 5d 3e b3 11 9d bd aa 9b bf 3e
       -0.115208626 0.21604945 -0.076693915 0.3742345
000100 e6 78 98 3e 13 fd 87 3e 1f ac 27 3d d8 07 38 3e
       0.29779738 0.26560268 0.04093563 0.17971742
000110 c7 df 86 3d 4e 8e 71 3d 98 7e 56 3e 1e da 22 3e
       0.06585651 0.058973603 0.20946729 0.15903518
000120 7d af 3d 3e 34 71 25 3d ba 81 60 3e 66 13 29 3d
       0.18523975 0.040391162 0.21924487 0.041278265
000130 59 8e 9e 3c 30 57 4f 3d c9 02 20 3d 75 13 29 3e
       0.019354986 0.050620258 0.039065156 0.16511329
000140 1e d3 4b 3e 82 7c 5c 3d 11 3c a7 bc 75 24 35 3e
       0.19904754 0.053829677 -0.020414384 0.17689689
000150 46 49 32 bd 18 92 58 3e 51 47 99 3e f7 58 b5 3d
       -0.04352691 0.2114948 0.29937223 0.08854859
000160 13 09 13 3e a9 a3 49 3e 34 02 56 3e 22 99 fd bc
       0.1435893 0.19691338 0.20899278 -0.030956808
000170 80 d7 cd 3e af 76 2d 3e 4a c4 3a 3e ed 32 8e 3e
       0.40203476 0.16939805 0.18238941 0.27773228
000180 10 60 de 3b de 5d 4a 3e 06 2b 4d 3e 49 2f e6 3d
       0.006786354 0.1976237 0.20035943 0.11239488
000190 5a 73 f6 ba 5c 0d d7 be 43 7e 70 3d 7d 1e 0e 3e
       -0.0018802688 -0.4200238 0.058714163 0.13878818
0001a0 c2 f0 38 bd be 34 31 bd 1c 69 3a 3c c8 fd 24 bd
       -0.04515148 -0.04326319 0.011377599 -0.040281087
0001b0 aa f3 41 bb b0 b4 2f be d3 f5 eb 3d 5b ed 95 bc
       -0.0029594698 -0.1715877 0.115214966 -0.018301656
0001c0 b7 5b 6f 3d cf 51 13 bd f0 84 70 be 5d 90 d0 3c
       0.058437075 -0.03596669 -0.23488212 0.025459463
0001d0 c5 d6 a7 bd 78 8c c3 bd 3e de 89 bd 30 5c 17 bd
       -0.08195261 -0.09548277 -0.067318425 -0.03695315
0001e0 a0 24 a2 bc 50 bb 96 bd 93 e4 cb 3d 6c 69 04 bd
       -0.019792855 -0.07359946 0.099557064 -0.0323271
0001f0 b9 d1 1c be 48 fc ad 3c 5f 0b 8e 3c dd 99 20 bc
       -0.15314378 0.021238461 0.017339407 -0.009802309
000200 78 f2 5c 3c b8 5b 4c 3d 05 dd 58 3d 20 d2 0f bc
       0.013485543 0.049892157 0.052945156 -0.008778125
000210 e2 01 45 bc 2c 4c 12 3d 59 59 01 be 07 57 b4 be
       -0.012024375 0.035717174 -0.1263174 -0.35222647
000220 95 21 1c 3e d5 ba 1c 3c 05 f0 a0 3b cc a6 b9 bd
       0.15247186 0.009566029 0.004911425 -0.09065017
000230 cd 64 15 be 77 f5 58 bd f0 79 ef bb ff c0 e0 3c
       -0.14589234 -0.05296847 -0.0073082373 0.027435778
000240 e4 09 d7 be 53 6a 98 bb 1a c5 83 bd 68 49 1e 3d
       -0.41999733 -0.0046513467 -0.064340785 0.038644224
000250 24 ec 13 3e e5 74 e8 bc 5b ca 8c be db 20 d9 3e
       0.14445549 -0.028376052 -0.27498135 0.4240788
000260 df f9 08 c0 7e ca a1 3c a2 e9 7e 3e 68 66 87 3d
       -2.140251 0.019749876 0.24893811 0.06611329
000270 59 83 3d 3d 8d 5d a1 bd 27 f8 93 be fa b1 77 bd
       0.04626784 -0.078791715 -0.28900263 -0.060472466
000280 9f 65 1b bf 37 75 e5 bd b5 6a ed bb 34 bc ba bc
       -0.60701936 -0.112039976 -0.0072453865 -0.02279482
000290 4e 9f 50 bd 16 da 58 3c f0 77 07 3e 23 e5 8f 3d
       -0.050933175 0.0132355895 0.13229346 0.07026126
0002a0 02 03 c3 bd 25 03 a2 bb 8c 44 b7 bd d3 be ef bd
       -0.09522058 -0.0049442225 -0.08948621 -0.11706319
0002b0 5d af 86 be 72 03 99 bc d4 d6 7a bd 60 7e 82 bd
       -0.26305667 -0.0186784 -0.061240032 -0.0637176
0002c0 e6 54 f7 bf 15 ef 4f 3d 48 84 db be 9d b6 a9 3b
       -1.9322784 0.050765116 -0.4287436 0.00517924
0002d0 18 51 32 3b a6 08 5e bd 49 0b 9a 3e e7 ce 2d 3d
       0.002720898 -0.054207467 0.30086735 0.042433646
0002e0 78 4c 69 3d d8 e5 fa bc f4 39 47 3c ea bf 5d 3e
       0.056957692 -0.030627176 0.012159813 0.2165524
0002f0 61 94 01 3d 9c 07 71 bd 37 5f a5 3a 80 36 e1 be
       0.031635646 -0.058845147 0.0012616877 -0.43986893
000300 fc 1a 6a be f5 7b 86 bd c9 fc 47 be 3f fa 80 bc
       -0.22861856 -0.06566612 -0.19530024 -0.015744327
000310 7b c7 bb 3c 22 fa 67 bc 63 e5 fd bc ce 5f 52 be
       0.022922268 -0.014158757 -0.03099317 -0.20544359
000320 0f 50 65 3e 41 4d 9c bd f1 b1 d4 bc e4 46 d6 3d
       0.22393821 -0.076319225 -0.025963755 0.1046274
000330 39 47 ea 3d 5e 5d c1 3d db 2e c8 3e 82 02 8e 3e
       0.11439366 0.094416365 0.39098248 0.27736288
000340 70 8d 82 3e 49 d7 5b bd 84 1a 83 bd 01 44 18 3e
       0.25498533 -0.05367211 -0.06401542 0.14869691
000350 11 51 cf ba 61 79 48 3e 64 6c 98 be d2 0f 2f 3e
       -0.0015817006 0.19577552 -0.29770195 0.17095879
000360 9c 9d a0 bc c2 a3 c4 3c 14 59 2c 3e 13 3a 20 3e
       -0.019606404 0.024003867 0.16830856 0.15647154
000370 fc 57 49 3e 47 e5 16 3e 40 ce 25 bd 44 d8 0a 3e
       0.1966247 0.147359 -0.0404799 0.13559061
000380 e1 ae 07 3e 3c 1f 03 3e 6d 36 50 bb 4d 58 07 3e
       0.13250305 0.12804884 -0.0031770722 0.13217278
000390 fb d7 a7 3e d9 8f 4f 3e ac 74 00 3e 32 a9 02 3e
       0.32781968 0.20269717 0.12544507 0.12759855
0003a0 4f bc 65 3d 30 a1 c3 3d 62 06 bb 3c aa e4 fd bd
       0.05608779 0.095522285 0.022830192 -0.1239713
0003b0 0f 23 e3 3d a9 09 11 3e ae eb 92 3c 64 33 1a 3e
       0.11090671 0.14163841 0.017934646 0.15058666
0003c0 66 bf e5 bd 06 dc 6a 3d d2 31 92 3d 94 1f 40 3e
       -0.11218147 0.057338737 0.07138409 0.18762046
0003d0 ff df 01 3d 93 f0 cd 3e d6 d3 53 3e 5c e2 a5 3e
       0.03170776 0.40222606 0.20686278 0.3239926
0003e0 ab 41 8e bb e3 3f 9b 3d f4 e2 4f be c4 21 16 3e
       -0.0043413243 0.07580545 -0.2030142 0.14661318
0003f0 f1 e5 14 be 9c 31 26 bd e5 df ee 3d 35 0c 1b 3e
       -0.1454084 -0.040574655 0.11663798 0.15141375

bias f4 [50]
000000 ea ba 81 bd 92 52 0c 3e f4 1e 6d be bc fd 80 bd
       -0.06334479 0.13703373 -0.23156339 -0.06298396
000010 88 96 b0 bd 1b 45 1c be 9a 46 f9 bd bc 78 7c 3d
       -0.086224616 -0.15260737 -0.12171669 0.06163858
000020 a9 f4 33 be b1 38 71 bd 7a d5 6d 3d 51 07 fd bd
       -0.17573799 -0.058891956 0.058064915 -0.12354911
000030 8d 90 a7 bd 99 10 d4 bd ee 3a 32 be ff ad 34 be
       -0.08181868 -0.10354728 -0.17405292 -0.17644499
000040 6e 20 28 be 02 6f 02 be c0 eb e8 bd c4 75 fd bd
       -0.16418621 -0.12737659 -0.11373091 -0.12375978
000050 1a 04 03 be 93 e4 5a bd 83 bc 06 3e 57 d0 0c 3b
       -0.12794533 -0.05344064 0.13157849 0.0021486485
000060 71 a8 bc bd ea fd 0f bd 98 f5 47 be 5d 46 9c be
       -0.09211815 -0.03515426 -0.1952728 -0.30522433
000070 40 72 60 be 1a 55 d4 3d 39 23 43 be 23 b3 24 be
       -0.21918583 0.10367794 -0.19056405 -0.1608396
000080 6c 8f 06 3e c8 a1 86 be cd e9 0d be 04 40 26 be
       0.13140649 -0.26295304 -0.13858719 -0.16235358
000090 37 6c 1d be 08 1c 74 bd f4 b7 a2 bd 0f e6 fe bd
       -0.15373312 -0.059597045 -0.079452425 -0.12446224
0000a0 ca d1 e6 bd eb 97 98 bd 02 97 a1 3d 7c 94 24 be
       -0.11270483 -0.07450851 0.078901306 -0.16072267
0000b0 5d 4b 28 be db 8f dd bd 6d 9a 15 be 63 62 53 bd
       -0.16434999 -0.10818454 -0.1460969 -0.0516075
0000c0 69 79 3b be 3f 40 aa 3b
       -0.18308033 0.005195647

weight f4 [1, 50]
000000 7e 86 5f 3c 8b 2d 20 be 44 e4 d4 3b f1 03 0e bc
       0.013642905 -0.15642373 0.006496938 -0.008667932
000010 37 d5 74 bb db 83 7f bb f8 b1 14 3c be 8d 62 3e
       -0.0037358531 -0.0038988504 0.009075634 0.22124383
000020 ba 1f 84 bb 77 a7 88 bb 69 ce 0b 3e 97 75 c8 bc
       -0.0040321024 -0.004170354 0.13652958 -0.024470134
000030 c3 5f 90 3b 11 f8 74 bb f4 16 c9 bc e3 97 57 3c
       0.004405947 -0.0037379304 -0.024547078 0.013158771
000040 cc c6 a3 3b 59 8a 0d 3d a5 c1 01 bc 20 e2 9b 3c
       0.0049980637 0.034555767 -0.007919704 0.019028723
000050 55 38 cf bb b0 e8 4d bc 2a db 62 be 92 5d c5 3c
       -0.006323854 -0.012567684 -0.22153917 0.02409247
000060 2e 68 6e 3b f9 4b 35 be 2e f1 ce bc 1d 5e b7 bb
       0.0036378014 -0.17704763 -0.025261488 -0.005595936
000070 fb cd e9 ba b6 93 1a 3e eb 87 1c 3b c9 32 43 ba
       -0.0017837876 0.1509541 0.0023884724 -0.0007446227
000080 7b 78 87 3e 05 ac a4 bb 91 c2 db bb 86 7b 3b bc
       0.26459107 -0.005025389 -0.0067065437 -0.0114430245
000090 4c f4 ef bb 15 d2 67 3d fb d6 39 bc 18 d8 f2 ba
       -0.0073228236 0.056596834 -0.011342759 -0.0018527536
0000a0 ef 58 5b bb 07 cc 43 3b b1 f1 73 3e 83 19 a7 ba
       -0.0033469757 0.0029876248 0.23822667 -0.0012748692
0000b0 a8 7f d3 ba ed d1 0d 3b f9 59 62 3c 35 48 77 39
       -0.0016136067 0.0021640018 0.013815396 0.00023582655
0000c0 d2 65 9a 3a 2f 3f e1 b9
       0.0011779612 -0.0004296242
