hw1/data/shallowModel.pt (torch, 7887 bytes, 3 tensors)

weight f4 [467, 1]
0.013862435 0.45751983 0.0006081761 -0.00028167453 -0.014360123 0.0013745712 0.00080964266 0.014248843
0.002064715 -0.014138195 0.010771761 -0.64955014 -0.0029810038 -0.019052565 0.16652705 -1.4362056
-0.0058669257 -0.003760042 -0.012162791 0.020496218 -0.010151104 -0.015357411 0.007745367 -1.0599542
-0.0010119098 -0.003397416 0.0066040065 -0.010718341 0.0006785064 -0.02327719 0.007812668 0.44613937
-0.001636316 -0.0025960037 0.0045358026 -0.0019129859 -0.019412026 0.19598065 0.002779812 0.010618065
0.0074107563 -0.036702864 -0.002909927 0.3935055 0.003165636 0.0031105713 -0.013146512 0.4158911
0.13933586 0.024388095 0.010509908 -0.00057303614 -0.0030132704 0.34569287 -0.06502705 -0.0038477697
-0.00045907742 0.0046948628 -0.023444 -0.0007856727 0.0048609315 0.29724085 -0.023085896 0.13768913
-2.1163242 -1.471457 0.0049273316 -0.03613517 -0.020390257 -0.0019026602 -0.020836284 -0.8255545
-0.0053935912 -0.008493064 -0.887936 0.039871443 -0.0035944849 0.3289619 1.1445079 0.0012354907
0.18333198 -0.03205161 -0.016712151 0.0044824597 -1.0904438 -0.0070023937 0.6286136 0.0011662327
-0.026475482 0.23826553 0.80601865 0.011222096 -0.00026329316 -0.20260106 -0.039556846 0.003845446
0.82352036 -1.373013 0.010150906 0.00012071916 0.010291973 -0.0048531755 0.0030041449 -0.0049637347
-0.019712785 0.0014271493 0.4848037 -0.019766262 -1.099921 0.00225227 -0.1801861 0.38413987
-0.011829335 0.019390823 0.20044976 1.2062292 -0.0050197095 0.0063058757 -0.013069856 -0.029572258
0.103569776 0.0006187157 -0.003095506 -0.005550704 -0.0019106875 -0.0009485717 -0.002088322 0.50302505
0.076659545 -0.003068099 0.27344146 -0.01309062 0.29326406 0.19145323 0.009288512 -0.020977741
0.0003461068 -0.00823296 -0.015562463 -0.00052955066 -0.005027189 -0.013836142 0.09531875 -0.045964785
0.85879505 -0.008834092 -0.00010925776 -0.004852967 -0.00035552838 0.16682364 0.013564129 0.73490506
-0.016326426 -0.024281098 -0.0015849017 0.82219535 0.004174102 -0.003966768 0.121194966 0.0040435037
0.6205167 -0.02350719 -0.007664106 -0.025433559 0.0124200415 0.11741209 -0.023445666 -0.01792989
-0.0016063089 0.031040953 -0.014642981 0.0036653527 -0.006974111 0.35453087 0.056636393 -1.132424
3.722324e-06 -0.0034143869 -0.001620231 0.0014322845 -0.0009935654 0.0061171 -0.0018539984 0.3707255
-0.0023232258 -0.013243099 -0.02938895 -1.0233251 -0.0038996423 -1.8509656 0.55945164 0.4991544
-0.0013857477 -1.035628 -0.00093459775 -0.0042317878 6.0080718e-05 0.011375309 0.058217246 0.07325369
-0.005030629 0.010483283 -0.016266536 -0.02420675 -0.015818095 0.16829526 0.860636 0.801536
-0.024452146 0.4264188 -0.019760689 -0.033872686 -1.1956593 0.060189474 0.0012346467 0.012394648
0.7274718 -0.023861399 -0.0043871044 0.90761185 0.0095426105 -0.0056782058 -1.3549683 -0.004250959
5.4635457e-05 0.90244097 -0.0044869278 0.1347393 0.0014557757 0.38963684 0.761953 0.20812848
0.5207857 0.981734 0.6504994 1.0028311 -0.009802144 -0.00012864913 -0.9607916 0.99524236
-0.0022753747 0.0025444583 0.016434293 -0.034728985 -0.000291696 -0.017347282 -0.02305352 -0.04169092
1.082985 -0.0036096561 -0.08561717 -0.069610715 -1.0141813 0.008791708 -0.015882082 0.012898921
00000000: 441f 633c 0a40 ea3e 026e 1f3a b7ad 93b9
00000010: b946 6bbc f52a b43a 333e 543a fb73 693c
00000020: 2b50 073b e3a3 67bc 0a7c 303c eb48 26bf
00000030: f25c 43bb 2014 9cbc 1186 2a3e 96d5 b7bf
00000040: 573f c0bb 096b 76bb 7146 47bc afe7 a73c
00000050: d150 26bc a69d 7bbc d9cc fd3b 94ac 87bf
00000060: 0fa2 84ba 2fa7 5ebb 6c66 d83b fb9b 2fbc
00000070: cbdd 313a ceaf bebc b400 003c 616c e43e
00000080: a779 d6ba b721 2abb 12a1 943b 28bd faba
00000090: f805 9fbc 27af 483e 822d 363b 64f7 2d3c
000000a0: eed5 f23b be55 16bd 79b4 3ebb 8e79 c93e
000000b0: 8f76 4f3b bada 4b3b 7864 57bc aeef d43e
000000c0: 0fae 0e3e 8bc9 c73c c031 2c3c ce37 16ba
000000d0: 4a7a 45bb a8fe b03e e72c 85bd dd2a 7cbb
000000e0: 54b0 f0b9 5dd7 993b a20d c0bc 9af5 4dba
000000f0: 7348 9f3b f42f 983e a21e bdbc 61fe 0c3e
00000100: db71 07c0 b458 bcbf 7475 a13b 7902 14bd
00000110: 7809 a7bc af62 f9ba dbb0 aabc 8a57 53bf
00000120: b9bc b0bb 7e26 0bbc c64f 63bf 3d50 233d
00000130: 7391 6bbb b26d a83e 3c7f 923f 30f0 a13a
00000140: 61bb 3b3e 8d48 03bd ece7 88bc 99e1 923b
00000150: aa93 8bbf 5674 e5bb d2ec 203f 47dc 983a
00000160: 1ce3 d8bc e1fb 733e 3d57 4e3f e2dc 373c
00000170: 9c0a 8ab9 a776 4fbe 5c06 22bd e103 7c3b
00000180: 3bd2 523f e4be afbf fc4f 263c 9b2a fd38
00000190: aa9f 283c 6307 9fbb 30e1 443b d3a6 a2bb
000001a0: b57c a1bc 2f0f bb3a 3138 f83e dbec a1bc
000001b0: 36ca 8cbf d29a 133b b482 38be fbad c43e
000001c0: d4cf 41bc 81d9 9e3c b442 4d3e b865 9a3f
000001d0: 607c a4bb 85a1 ce3b f322 56bc 8541 f2bc
000001e0: 641c d43d 4f31 223a f9dd 4abb aee2 b5bb
000001f0: 0970 faba 92a9 78ba 3bdc 08bb 40c6 003f
00000200: aeff 9c3d 2912 49bb 8500 8c3e 0a7a 56bc
00000210: b526 963e 510c 443e d82e 183c 83d9 abbc
00000220: ab75 b539 89e3 06bc b3f9 7ebc 8bd1 0aba
00000230: 1ebb a4bb fcb0 62bc 7a36 c33d 9245 3cbd
00000240: fed9 5b3f debc 10bc 5021 e5b8 a305 9fbb
00000250: 3666 bab9 d1d3 2a3e 153c 5e3c bd22 3c3f
00000260: ffbe 85bc 27e9 c6bc 7abc cfba 657b 523f
00000270: e8c6 883b a9fb 81bb 1135 f83d 5e7f 843b
00000280: 2fda 1e3f 2792 c0bc 2e23 fbbb 0a5a d0bc
00000290: 6e7d 4b3c c075 f03d 2011 c0bc b4e1 92bc
000002a0: c88a d2ba 9949 fe3c 1de9 6fbc 6a36 703b
000002b0: 1587 e4bb 1285 b53e 90fb 673d 45f3 90bf
000002c0: 0acd 7936 e8c3 5fbb ee5d d4ba 7ebb bb3a
000002d0: 863a 82ba f471 c83b dd01 f3ba bccf bd3e
000002e0: 4341 18bb 95f9 58bc 18c1 f0bc 51fc 82bf
000002f0: 2491 7fbb 71ec ecbf 3938 0f3f 2a91 ff3e
00000300: faa1 b5ba 758f 84bf cbff 74ba cfaa 8abb
00000310: 2eff 7b38 815f 3a3c 3575 6e3d 0806 963d
00000320: fad7 a4bb 13c2 2b3c 6641 85bc 3c4d c6bc
00000330: f394 81bc 9855 2c3e a452 5c3f 7731 4d3f
00000340: de4f c8bc 9153 da3e 2be1 a1bc 16be 0abd
00000350: 5d0b 99bf 3d89 763d ded3 a13a ec12 4b3c
00000360: 983b 3a3f fb78 c3bc b3c1 8fbb 4059 683f
00000370: 9c58 1c3c 3e10 babb 9a6f adbf a14b 8bbb
00000380: 6028 6538 5f06 673f 1407 93bb 19f9 093e
00000390: bacf be3a 7b7e c73e 5a0f 433f a21f 553e
000003a0: 3652 053f eb52 7b3f 2187 263f c55c 803f
000003b0: 2c99 20bc fde5 06b9 70f6 75bf 34c8 7e3f
000003c0: 741e 15bb edc0 263b 36a1 863c fb3f 0ebd
000003d0: c6ee 98b9 e31b 8ebc bcda bcbc 19c4 2abd
000003e0: 419f 8a3f fb8f 6cbb 0e58 afbd 1090 8ebd
000003f0: b1d0 81bf 190b 103c 241b 82bc ff55 533c

bias f4 [467]
-0.013031916 -0.35982245 -0.008884894 -0.0316174 -0.009011273 -0.014588095 -0.0019694816 -0.04198881
-0.00054270093 -0.028514098 -0.008675118 0.27525306 -0.0021810685 -0.021742793 -0.14074783 0.35829815
-0.00917678 -0.023160582 -0.021295318 -0.023856442 -0.0072865556 -0.009889612 -0.033188924 0.20462824
-0.0074923323 -0.026063716 -0.008525411 -0.029193556 -0.0041959155 -0.01437363 -0.01568591 -0.3598507
-0.0028925939 -0.00029617635 -0.008423142 -0.0015068891 -0.029905474 -0.14764243 -0.007020897 -0.028536456
-0.011650955 -0.030529823 -0.0032576132 -0.3193729 -0.0049467175 -0.014686336 -0.02089515 -0.33670318
-0.119230464 -0.054432612 -0.0200222 -0.00054311584 -0.009055963 -0.29230663 -0.03470379 -0.008375766
-0.00013392532 -0.004326325 -0.013451077 -0.00078651635 -0.0056714257 -0.24807732 -0.016222283 -0.11085332
0.19087256 0.38736522 -0.0048059956 -0.028802758 -0.031045064 -0.020039685 -0.018990215 0.14024587
-0.032392398 -0.02917804 0.14783414 -0.057968456 -0.004405429 -0.25816262 -0.35184282 -0.038352262
-0.15518022 -0.014337476 -0.017318489 -0.007123323 0.31274053 0.00030576985 -0.51472366 -0.026891503
-0.01895757 -0.20396379 -0.688093 -0.025330175 -0.02755174 -0.019786203 -0.03182273 -0.007663222
-0.6862433 0.39335626 -0.008452402 -0.00065613986 -0.022678643 -0.01835122 -0.00827119 -0.014741121
-0.038187128 -0.00444419 -0.38839757 -0.015570875 0.2853161 -0.003048812 -0.20695913 0.09254847
-0.0064582713 -0.016803067 -0.16685504 -0.6009269 -0.011925611 -0.017990993 -0.000481841 -0.036242224
-0.08329409 -0.0006583678 -0.003104313 -0.0016604533 -0.0022467677 -0.013977231 -0.0013321894 -0.32810548
-0.06180069 -0.013098109 -0.23791271 -0.019595593 -0.24385604 -0.19765776 -0.034185335 -0.04877036
-0.0054082046 -0.0022632175 -0.0038123948 -0.04265782 -0.018108677 -0.008859982 -0.08179784 -0.0052325386
-0.28518042 -0.00020001338 -0.022581268 -0.0019002173 -0.018358218 -0.13259302 -0.010136348 -0.26357883
-0.024619617 -0.008747637 -0.00017091708 -0.42525268 -0.009192857 -0.0028423083 -0.11705418 -0.003379634
-0.33182588 -0.00030923274 -0.04213505 -0.015022229 -0.00993772 -0.105365284 -0.029308027 -0.026551995
-0.00044589915 -0.047709998 -0.00052664307 -0.01591065 -0.0062496937 -0.32471308 -0.0494844 0.19215274
-2.0761228e-05 -0.020687226 -0.02177285 -0.0033908335 -0.004453048 -0.0057768812 -0.012392216 -0.28898486
-0.0001759424 -0.016946455 -0.008257885 0.20073304 -0.00052338163 -0.005753327 -0.44783163 -0.39556545
-0.0009104158 0.25208643 -0.0017271572 -8.024375e-05 -4.8936618e-05 -0.011681102 -0.07081682 -0.064655185
-0.019308908 -0.013323303 -0.015212975 -0.026432358 -0.004037042 -0.1771062 -0.7044876 -0.53664726
-0.03272968 -0.35845712 -0.014953443 -0.011722095 0.2863633 -0.05560553 -0.011521952 -0.010311277
-0.5916175 5.8959813e-05 -0.0060251597 -0.29813886 -0.011239227 -0.0014003529 0.29326776 -0.0059136744
-6.9982314e-05 -0.28368983 -5.101455e-05 -0.1363388 -0.0092911245 -0.29678187 -0.40720287 -0.16884775
-0.414541 -0.3251966 -0.34819916 -0.32690418 -0.0014969644 -0.0007697605 0.1737509 -0.30772147
-0.001632893 -0.016106496 -0.012669355 -0.02716333 -0.007004397 -0.0029610682 -0.015715096 -0.0066582835
-0.68606514 -0.015029019 -0.025385214 -0.017542394 0.21965061 -0.007107388 -0.020970248 -0.01062036
00000000: d183 55bc a63a b8be f291 11bc 3f81 01bd
00000010: 05a4 13bc e802 6fbc 6b12 01bb 75fc 2bbd
00000020: 0b44 0eba 6696 e9bc 1522 0ebc f8ed 8c3e
00000030: 42f0 0ebb f11d b2bc 3320 10be db72 b73e
00000040: 345a 16bc 43bb bdbc 8573 aebc 966e c3bc
00000050: 0fc4 eebb 0a08 22bc 1cf1 07bd 118a 513e
00000060: 3d82 f5bb 9383 d5bc 2aae 0bbc 5327 efbc
00000070: e47d 89bb 607f 6bbc bd7f 80bc 5a3e b8be
00000080: ac91 3dbb 1e48 9bb9 3801 0abc cf82 c5ba
00000090: 53fc f4bc 942f 17be 8e0f e6bb 49c5 e9bc
000000a0: a6e3 3ebc ae19 fabc ae7d 55bb d884 a3be
000000b0: 1318 a2bb f59e 70bc 4e2c abbc 5c64 acbe
000000c0: 1a2f f4bd bbf4 5ebd 9905 a4bc e35f 0eba
000000d0: 765f 14bc 37a9 95be 9025 0ebd 823a 09bc
000000e0: 4e6e 0cb9 d8c3 8dbb e861 5cbc 382e 4eba
000000f0: 5ed7 b9bb fb07 7ebe 98e4 84bc 1107 e3bd
00000100: 1974 433e bc54 c63e 9d7b 9dbb c3f3 ebbc
00000110: 3852 febc 442a a4bc 5e91 9bbc 9d9c 0f3e
00000120: e4ad 04bd c906 efbc d561 173e 5570 6dbd
00000130: 6b5b 90bb e42d 84be be24 b4be 4317 1dbd
00000140: 90e7 1ebe bce7 6abc 81df 8dbc c46a e9bb
00000150: 871f a03e bc4f a039 eec4 03bf 924b dcbc
00000160: e84c 9bbc e2db 50be dd26 30bf 3a81 cfbc
00000170: 30b4 e1bc ad16 a2bc 8d58 02bd c41b fbbb
00000180: a4ad 2fbf fe65 c93e f27b 0abc cd00 2cba
00000190: 90c8 b9bc 4c55 96bc e383 07bc be84 71bc
000001a0: 1b6a 1cbd 91a0 91bb 0cdc c6be fc1c 7fbc
000001b0: f414 923e 94ce 47bb 18ed 53be 0d8a bd3d
000001c0: e89f d3bb 96a6 89bc 0cdc 2abe 58d6 19bf
000001d0: a363 43bc d961 93bc 9b9f fcb9 ba72 14bd
000001e0: 1896 aabd 5196 2cba bb71 4bbb 91a3 d9ba
000001f0: 823e 13bb c200 65bc dc9c aeba 71fd a7be
00000200: b822 7dbd 7399 56bc 649f 73be f086 a0bc
00000210: 66b5 79be cc66 4abe ec05 0cbd 6ec3 47bd
00000220: 4f37 b1bb 7d52 14bb 5fd9 79bb f7b9 2ebd
00000230: a658 94bc 7529 11bc a085 a7bd b775 abbb
00000240: 2b03 92be afba 51b9 5afc b8bc b610 f9ba
00000250: f963 96bc 77c6 07be ed12 26bc cef3 86be
00000260: 14af c9bc 4052 0fbc 3438 33b9 b8ba d9be
00000270: a39d 16bc 0546 3abb 1aba efbd da7c 5dbb
00000280: 15e5 a9be 8420 a2b9 cd95 2cbd cc1f 76bc
00000290: d2d1 22bc c1c9 d7bd 6317 f0bc 9283 d9bc
000002a0: 92c7 e9b9 8f6b 43bd 6b0e 0aba 0d57 82bc
000002b0: 3bca ccbb cb40 a6be 27b0 4abd b0c3 443e
000002c0: 6628 aeb7 4278 a9bc fa5c b2bc bf38 5ebb
000002d0: e0ea 91bb fe4b bdbb b908 4bbc d3f5 93be
000002e0: 2e7d 38b9 4bd3 8abc 154c 07bc f68c 4d3e
000002f0: 8c33 09ba 6886 bcbb 304a e5be 8e87 cabe
00000300: f8a8 6eba 7911 813e c761 e2ba 8948 a8b8
00000310: 4b41 4db8 1862 3fbc 6908 91bd f069 84bd
00000320: b72d 9ebc fc49 5abc d83f 79bc ac88 d8bc
00000330: 2a49 84bb 545b 35be 4d59 34bf b761 09bf
00000340: 8f0f 06bd b187 b7be 49ff 74bc 080e 40bc
00000350: 369e 923e a0c2 63bd 92c6 3cbc a1f0 28bc
00000360: 3f74 17bf 9e4b 7738 b46e c5bb a8a5 98be
00000370: bc24 38bc 0c8c b7ba 3127 963e 7fc7 c1bb
00000380: 78c3 92b8 cb3f 91be 75f8 55b8 669c 0bbe
00000390: cd39 18bc cbf3 97be e57c d0be 6de6 2cbe
000003a0: b83e d4be 2b80 a6be 2947 b2be fc5f a7be
000003b0: ca35 c4ba c1c9 49ba c2eb 313e ab8d 9dbe
000003c0: cc06 d6ba c5f1 83bc 2093 4fbc a285 debc
000003d0: 2485 e5bb 7b0e 42bb f2bc 80bc bb2d dabb
000003e0: f7a1 2fbf 463c 76bc a7f4 cfbc 11b5 8fbc
000003f0: 17ec 603e 18e5 e8bb ccc9 abbc 0501 2ebc

weight f4 [1, 467]
-0.00092799525 -0.0072829234 -0.0050909785 0.0031350667 -0.008551073 -0.01214137 1.943119e-05 -0.0010492653
-6.404809e-06 0.020588726 0.00018662673 -0.1785265 0.00012969783 -0.021726169 0.014868822 0.39153418
0.0058283657 -0.014779302 0.018882707 0.00573419 -0.008810565 -0.009320802 -0.0029563166 0.20739041
-0.0052316147 0.013900827 0.001085873 0.027135244 0.0014957511 0.020836178 -0.0031425525 0.004477906
0.00067178067 0.000562541 -0.0019464412 -2.882705e-05 0.0056833676 0.0031934343 -0.0006042408 -0.010501572
-0.0012629975 0.014438437 -0.003302129 0.006421821 -0.0017792691 0.0023678422 0.017097676 -0.008373712
-0.009166485 0.01048154 0.021369362 0.00015384826 0.006106656 -0.0006346311 0.033526875 0.0034498733
0.00011383405 0.00025522683 -0.0204473 -0.0004920768 -0.0006148346 -0.01122829 -0.016973538 0.00041317806
-0.79748654 0.32542402 0.0010336606 0.01904339 -0.005261848 0.015742699 0.03006521 0.13050953
-0.016380033 -0.018899731 0.12038341 -0.016846005 0.0031318346 -0.005223834 0.2006806 -0.013825867
-0.011289263 0.01779981 -0.021048473 -0.00022154035 0.53780466 0.0004544949 0.30024353 0.02379822
0.01551673 -0.0072173574 0.041823577 -0.02247796 0.025836155 -0.007077706 -0.036478363 -0.0012197414
0.045993693 0.3336962 0.0009818855 0.00030671753 -0.0037812411 0.015970495 -8.244917e-06 -0.012323999
-0.009046172 -0.001415258 -8.723654e-05 -0.020587953 0.35425743 -7.61287e-05 0.03297536 -0.029209228
-0.0007880199 -0.0017157018 0.009508065 -0.59710443 0.012295186 0.009931542 -0.00086337054 -0.03706628
-0.0005513391 -0.00019067987 -4.4404165e-05 0.00074071763 -5.0335948e-05 -0.010385159 -0.00010037602 -0.0061077005
-0.0039046565 -0.011173464 0.0060142744 0.014858513 0.011373524 -0.002119481 -0.015154326 -0.0018210046
-0.0015250247 0.0007514511 -0.0025185081 0.016401384 -0.013430476 -0.0008410299 -0.011048204 0.012022486
0.10054541 -0.000510024 0.021281179 0.0006991652 -0.013266441 0.01444718 -0.0073947227 0.016469456
-0.025148489 0.014704652 9.995807e-05 -0.43420377 -0.007140709 9.0271766e-05 -0.01171103 -4.4023072e-05
-0.24984276 0.00254084 0.0088199675 0.017196875 -0.000626946 0.012142068 0.03305604 -0.021317186
0.00015159941 -0.0011036303 -0.0010737072 -0.0054919277 -0.008523647 0.024036601 0.003159355 0.19683634
-1.6148764e-06 0.018186994 0.006278999 -0.0020621119 0.00056800735 -0.0006466999 0.005957823 -0.005710742
6.3755188e-06 0.01700889 0.008292682 0.30084363 0.00054047105 -0.4637265 0.00929707 -0.004316485
-0.00011330769 0.24369718 0.0008796978 0.00018787039 -1.1198446e-05 0.0050261673 0.001722114 -0.008726778
-0.015934445 0.00034238724 -0.015480545 0.02372473 -0.0054394235 0.011234045 -0.015169127 0.41019323
0.03060165 0.00740971 0.0026037109 -0.01373797 0.44287038 -0.0060282806 -0.006616029 -0.00016253075
0.04934328 -0.0030226258 -0.005583589 0.142448 0.0014425397 0.0012464325 0.32913893 -0.0056161536
-3.884526e-06 0.15037641 0.0009079756 -0.0044437284 0.004665208 0.0031981794 -0.36505508 -0.0063438118
0.005937419 0.11556265 -0.2194149 0.14770977 0.0004391072 -0.00023927941 0.16501084 0.17689438
-0.00014534827 -0.0072352444 -0.00026517795 -0.03019533 0.0028222487 -0.0045580864 -0.0065477476 -0.0127691375
0.5132223 -0.011841269 0.0092862 -0.0021661161 0.33881733 -5.882661e-05 0.014449262 0.000977163
00000000: b544 73ba 97a5 eebb 39d2 a6bb b175 4d3b
00000010: cd19 0cbc 99ec 46bc 2a00 a337 8087 89ba
00000020: e4e8 d6b6 b0a9 a83c 3bb1 4339 a7cf 36be
00000030: 7fff 0739 14fb b1bc 5c9c 733c 2b77 c83e
00000040: e0fb be3b e324 72bc e8af 9a3c dfe5 bb3b
00000050: 305a 10bc 47b6 18bc c3be 41bb 275e 543e
00000060: f76d abbb 4bc0 633c da53 8e3a bb4a de3c
00000070: 140d c43a a2b0 aa3c 48f3 4dbb 66bb 923b
00000080: 701a 303a 7d77 133a bb1f ffba 9ed1 f1b7
00000090: 8b3b ba3b f048 513b ea65 1eba c90e 2cbc
000000a0: 2a8b a5ba 328f 6c3c 8868 58bb 246e d23b
000000b0: 5d36 e9ba cd2d 1b3b 6d10 8c3c e531 09bc
000000c0: 062f 16bc c4ba 2b3c cd0e af3c 5452 2139
000000d0: 581a c83b 5f5d 26ba 7a53 093d 4517 623b
000000e0: 31ba ee38 f7cf 8539 1981 a7bc b7fe 00ba
000000f0: da2c 21ba ddf6 37bc 170c 8bbc d29f d839
00000100: 1428 4cbf fa9d a63e e57b 873a e200 9c3c
00000110: 956b acbb d5f6 803c 514b f63c 4aa4 053e
00000120: 6b2f 86bc 9cd3 9abc 948b f63d a200 8abc
00000130: 773f 4d3b b22c abbb 377f 4d3e e485 62bc
00000140: 9af6 38bc e8d0 913c d96d acbc 494d 68b9
00000150: 91ad 093f 4649 ee39 85b9 993e 7cf4 c23c
00000160: e239 7e3c 957f ecbb 334f 2b3d b323 b8bc
00000170: 58a6 d33c 1aec e7bb 566a 15bd bbdf 9fba
00000180: e263 3c3d 3ada aa3e 9cb2 803a eece a039
00000190: b3ce 77bb 8ed4 823c a653 0ab7 99ea 49bc
000001a0: 6536 14bc 2e80 b9ba c3f2 b6b8 11a8 a8bc
000001b0: 3b61 b53e 49a7 9fb8 2c11 073d 3148 efbc
000001c0: 1f93 4eba 66e1 e0ba b7c7 1b3c d6db 18bf
000001d0: bf71 493c e8b7 223c d153 62ba d0d2 17bd
000001e0: be87 10ba 3df1 47b9 9c3e 3ab8 b82c 423a
000001f0: d01f 53b8 8426 2abc f780 d2b8 1b23 c8bb
00000200: 44e5 7fbb e810 37bc 6413 c53b 1f71 733c
00000210: 0458 3a3c fee6 0abb da49 78bc c6ae eeba
00000220: 56e3 c7ba 08fd 443a 8e0d 25bb 325c 863c
00000230: 800b 5cbc 9078 5cba 8703 35bc f6f9 443c
00000240: c0ea cd3d 22b3 05ba de55 ae3c 2f48 373a
00000250: 7d5b 59bc ddb3 6c3c 6e4f f2bb f4ea 863c
00000260: 3404 cebc c8eb 703c 95a0 d138 f54f debe
00000270: 9cfc e9bb 4950 bd38 9fdf 3fbc 6aa5 38b8
00000280: c8d6 7fbe 3984 263b a081 103c 76e0 8c3c
00000290: a259 24ba 86ef 463c c565 073d 61a1 aebc
000002a0: a8f6 1e39 b0a7 90ba a3bb 8cba a1f5 b3bb
000002b0: c4a6 0bbc 68e8 c43c 2e0d 4f3b 778f 493e
000002c0: bbbe d8b5 e4fc 943c 10c0 cd3b 7f24 07bb
000002d0: 54e6 143a 4c87 29ba d739 c33b 2d21 bbbb
000002e0: 4aed d536 3a56 8b3c 07de 073c 2d08 9a3e
000002f0: 66ae 0d3a 8f6d edbe bd52 183c 4d71 8dbb
00000300: 9a9f edb8 c18b 793e 859b 663a 13ff 4439
00000310: f6e0 3bb7 8cb2 a43b 8fb8 e13a c3fa 0ebc
00000320: f488 82bc 7082 b339 1da2 7dbc 5d5a c23c
00000330: 313d b2bb 000f 383c ee87 78bc d904 d23e
00000340: 50b0 fa3c 27cd f23b 05a3 2a3b 3915 61bc
00000350: e8bf e23e e288 c5bb 46cb d8bb 046d 2ab9
00000360: 2e1c 4a3d 3f17 46bb 8af6 b6bb e3dd 113e
00000370: 9a13 bd3a 565f a33a e684 a83e b607 b8bb
00000380: d357 82b6 46fc 193e 3605 6e3a b29c 91bb
00000390: 9ade 983b 8c98 513b 80e8 babe c0df cfbb
000003a0: ae8e c23b 1cac ec3d 4dae 60be 3b41 173e
000003b0: f937 e639 14e7 7ab9 9af8 283e cd23 353e
000003c0: a168 18b9 a115 edbb 9507 8bb9 325c f7bc
000003d0: 7af5 383b 005c 95bb 7d8e d6bb a535 51bc
000003e0: 8962 033f e201 42bc 2525 183c 66f5 0dbb
000003f0: 7779 ad3e 97bc 76b8 99bc 6c3c 2614 803a
