data/firstModel_lowParam.pt (torch, 8479 bytes, 5 tensors)

weight f4 [50, 1]
00000000: d9e6 423c 6e9b d7bc 6e8f 5e3c 6d65 283c
00000010: d7e8 cc3f 9581 f43e a8d2 993f f374 6a3d
00000020: 9e6f 6bbf d589 a2bf 7213 ccbf 4626 acbf
00000030: 7ef8 24c0 0940 29bd 55ee 09bd 18c7 043f
00000040: 89a7 fd3e 540c 483f 1b01 98be 03e6 8bbf
00000050: 9a56 cdbf a31c 32bc 73df a2bc 8c86 383f
00000060: 5c23 9ebf 0204 aebc 580a a2bc b235 783a
00000070: c932 38bf 19aa 993b 9cc9 20bc 22e4 0fbf
00000080: 2965 693f 1bc1 83bf aa1b 39bf 8eb8 453f
00000090: 6865 173f 708b 25bd 2a79 34bf d344 da3d
000000a0: 24a3 a2bd 470f aebc 4238 b4be 316a 8a3f
000000b0: 242c efbc db6a 763e c45d 78bc 82ca 87bf
000000c0: d056 b5be 7ab8 26bd
0.011895859 -0.026319232 0.013584001 0.010278088 1.6008557 0.47755113 1.2017412 0.057240438
-0.9196719 -1.2698313 -1.5943434 -1.344918 -2.5776668 -0.041320834 -0.033674557 0.5186629
0.49541882 0.7814381 -0.29688343 -1.0929569 -1.6042054 -0.010871085 -0.01988194 0.720803
-1.2354541 -0.021242145 -0.019780323 0.00094684504 -0.7195249 0.0046894667 -0.009813692 -0.5620748
0.91169983 -1.0293306 -0.72307837 0.77234733 0.5913911 -0.04041618 -0.7049738 0.106576584
-0.07941273 -0.02124752 -0.3519917 1.0813657 -0.029195853 0.240642 -0.015159074 -1.0608675
-0.35417795 -0.040703274

bias f4 [50]
00000000: b19e 553c 2a78 9bbc e81d 09bc da8d b7bc
00000010: f720 04be b33b 2dbe 7ce3 89bd 44cf 6cbd
00000020: 2479 1e3f 03d2 183f 7017 a53e 42eb b43e
00000030: 06d6 9d3d 2d9d 5fbc 14f7 62bc 972c ddbe
00000040: 05c7 2fbe 4b44 14bf b5b0 2cbc caef 3f3f
00000050: 3946 b33e 4b81 d6bc 19cb cdbb ca65 0abf
00000060: 9416 6e3e 2ac6 f4bc 84f9 98bc 32b8 6fbc
00000070: 4d63 0f3e 4187 68bc 8629 fabc 0184 c23e
00000080: 877b 21bf 4dde 273f d04a e43e 2d08 b5bd
00000090: a6bf 4fbe ced1 babc f9a9 e53e f329 01be
000000a0: 6a07 89bc a830 46bc 2dd5 7bbb 53b7 42bf
000000b0: 16fd 91bb e797 47be c4d9 f1bc 83b2 e83e
000000c0: b032 5c3e 89cb a9bc
0.013038323 -0.018978197 -0.008368947 -0.022406507 -0.129032 -0.16917305 -0.06732842 -0.05781485
0.61903596 0.5969545 0.32244444 0.35335737 0.07706837 -0.0136483135 -0.013852853 -0.43198082
-0.17165764 -0.57916707 -0.010540177 0.74975264 0.35014513 -0.026184699 -0.0062803146 -0.5406157
0.232508 -0.029879648 -0.018673666 -0.014631318 0.14002724 -0.014192403 -0.030537378 0.37991336
-0.6307911 0.6557358 0.44588327 -0.0883945 -0.20287952 -0.02280512 0.4485624 -0.12613659
-0.016727168 -0.0120965615 -0.0038426623 -0.7606098 -0.004455219 -0.1949154 -0.029522784 0.45448694
0.21503711 -0.020726936

weight f4 [25, 50]
00000000: 8926 5d3e be64 783e 4b1f 6d3e 6ea6 4c3e
00000010: 4d30 203e 7dde 56bd 8669 c13c dfb1 ba3d
00000020: 7772 debd 645f bd3e 2940 7abe 386a 34be
00000030: b6f3 3d3f b5ce 523d c403 debc 4b5c 753e
00000040: a671 6cbb f93d fd3d 925b 513e 0227 e1bb
00000050: 4c68 3abd 7974 793e 5d45 e03b fbe2 6a3e
00000060: f81d abbc f683 fb3d cb5f 1e3e a2b6 d83d
00000070: cd08 9ebe 541d ab3c b928 023e d809 4d3d
00000080: 375b dd3c b735 a6bd adb4 4cbd 2a46 b33d
00000090: 6cea d93c dcb7 2d3e 5306 1e3c 7d62 ca3d
000000a0: 77a6 663e 9a51 8b3c 1f84 b73e 3e64 55bf
000000b0: ca5b 733d 8e5c f23d 2a88 343d cc93 233f
000000c0: 03dc 8e3d 1ba4 f63d 265e 373e 3abb 7d3d
000000d0: 42ce 553d 0c04 323e ee01 a23d 1490 15be
000000e0: c47d b63d c28b 793e 4d43 35ba 256c c7bc
000000f0: eb73 9ebd 9970 9e3d 3dc9 9b3e 2fc9 b4bc
00000100: 8803 723e 3406 473e bb1d b93d 5d73 513d
00000110: ce0d 943d 1581 acbd e56d a93d 626a cc3e
00000120: ddfb cf3c 60e1 4d3e e39c b8bd 848b 6f3e
00000130: 69de 543e fa8d aabd 1503 7abe 3f54 3d3e
00000140: 2cdf 943e 2e3e b33c a075 823d b8d5 8f3d
00000150: 02fb 853d 199e 543d 2c89 a0bc 06a3 543e
00000160: 0b6d 0fbd c534 ca3e 0600 0f3e c3be 683e
00000170: f9f7 323e b0e8 d4be 5aeb 773e 1e22 8f3e
00000180: c8b1 23be 3246 1f3e 5f86 c9bd 2c29 363e
00000190: ba68 5e3c 9256 343d 2f8c 9d3e 668b 923e
000001a0: ad5a 5fbe e87d 7c3d 81d4 b03d 02e2 d13d
000001b0: 0b82 893d 518d 41bf d783 b13e c5ba eb3c
000001c0: e647 1abd d0f0 663d 73e8 cd3d 51a0 de3d
000001d0: 30df 763d c8b9 ac3d d6a9 6e3e 17dc 7b3e
000001e0: 5a79 9c3e 79b4 203e 74a0 9d3d fd85 223e
000001f0: 4337 943e 0e42 da3d 4cf2 683e b0de 6c3d
00000200: 87f2 c83e 2b8d 513e b57d 3a3e b6cb 5f3c
00000210: d755 b2bd 8c53 2c3e 0726 6c3b 932e 283d
00000220: d489 183d 9376 623e 30fd df3d 170b ed3d
00000230: 23a7 0b3d d9fe 343e a0e6 203e a807 b73f
00000240: 07c1 613e af8a 873d 69be 873e e597 5bbf
00000250: bb1d 99bd 20c0 d53e ac4a 673c ba13 b43d
00000260: 94d0 603e 844e 5e3e 9353 ae3d 5fad 2ebe
00000270: 4e90 fd3d 4554 a33e 9256 9abd afce cf3e
00000280: 1b4f 82be fbee 8c3d c138 923e 61e3 d4bc
00000290: 570a c53d 0278 fcbc b7e2 0f3d 93a5 593d
000002a0: 0526 88bd cd6c 983b e458 44be 983d ed3d
000002b0: 8c53 b73d 8ca2 843e 02e1 f1bc 38d1 463e
000002c0: 650d f23d 5468 5f3e 571b b0be 4145 ce3c
000002d0: 32a8 1e3e 4df3 30bd 62b3 e53c ba8e 03be
000002e0: 3335 723d b360 933d 7fb1 d6bc 54a8 013e
000002f0: 92b5 94bd 1b34 813e 69b4 4a3e 5e3e d13d
00000300: 4b79 0c3d 2d90 3abf 09c9 a43e 962b 293d
00000310: bc21 2fbd 38bf 083f f31d fdbd 6e37 ae3e
00000320: e5b2 1cbd 0318 c03d 452d 483d 8863 1a3e
00000330: 83de b73c 5f68 01be bffa 823d 0843 a43e
00000340: af87 cbbd a1e7 fc3e 89aa 55be b6f4 4fbc
00000350: 77f8 053f b65c 313e e8c2 6f3e 5e20 553e
00000360: 97c8 143a 4264 283e 24ae 453e ce53 40be
00000370: 95d9 37be 74dc b83e 1feb ca3d a45d ed3d
00000380: 12aa 2ebd 5a7f 003e b04a 433e 37d3 923d
00000390: 4d96 03be a97a 673d 55af ae3d c43f 32bd
000003a0: 219d 153e 6a87 0abe 01e9 983d 120c 973c
000003b0: 6a7a ebbc 5507 053e 11cc aebd e8e6 813e
000003c0: a082 7e3e 1db9 6f3e c63a d83d b34f 6dbf
000003d0: aa4d 743e 9a33 703e f3f1 a13c 3357 163f
000003e0: 39fb 063d 1773 9b3d 8188 0d3d 58a0 1d3e
000003f0: 7892 b73d 149f 733d 7311 0d3e 795a 93bd
0.21596731 0.2425718 0.23156469 0.19985363 0.15643425 -0.052458275 0.023609888 0.091159575
-0.10861676 0.3698684 -0.24438538 -0.17618644 0.742 0.051466662 -0.027101405 0.23960988
-0.0036078482 0.12365336 0.20445088 -0.006871105 -0.04550962 0.24360837 0.0068442062 0.22938149
-0.020888314 0.12281029 0.1546623 0.105817094 -0.3086609 0.020888008 0.12710847 0.050058216
0.027021034 -0.08115714 -0.049976993 0.08753617 0.026601039 0.16964668 0.0096450625 0.098820664
0.22524439 0.017006684 0.35842988 -0.8335608 0.05941371 0.1183406 0.04407517 0.63897395
0.06975558 0.120430194 0.17907009 0.06194613 0.052198656 0.17384356 0.07910524 -0.14605743
0.08910707 0.2436972 -0.00069146306 -0.02434356 -0.07736953 0.0773632 0.3042697 -0.022068588
0.2363416 0.1943596 0.09038874 0.05113541 0.072291955 -0.08423058 0.08272914 0.39924914
0.025388652 0.20105505 -0.09014299 0.23393065 0.20787968 -0.08327861 -0.24415238 0.18489169
0.29076517 0.021880236 0.063700914 0.070231855 0.065420166 0.051908586 -0.019596659 0.20765314
-0.0350161 0.39493385 0.13964853 0.2272902 0.17477407 -0.41583776 0.24210873 0.27955717
-0.15985787 0.15554121 -0.098400824 0.17789143 0.013574773 0.044027872 0.30771014 0.28621978
-0.21811934 0.06164351 0.08634282 0.10248186 0.06714257 -0.75606257 0.34670898 0.028775582
-0.037666224 0.056382 0.10054102 0.10870422 0.060271442 0.084338725 0.23306975 0.24595676
0.30561334 0.15693845 0.0769662 0.15871425 0.2894841 0.1065713 0.22748679 0.05782956
0.39247534 0.20464008 0.18212016 0.013659408 -0.08707779 0.16828746 0.0036033408 0.04106004
0.03724082 0.22115545 0.109369636 0.11574381 0.03409494 0.17675342 0.15712976 1.4299212
0.2204629 0.06618249 0.2651246 -0.8577865 -0.07476374 0.41748142 0.014116924 0.08792825
0.21954566 0.21709639 0.08512034 -0.17058323 0.123810396 0.3190023 -0.07536043 0.40587375
-0.25450978 0.068815194 0.28558925 -0.025987329 0.09621113 -0.030818943 0.03512832 0.05313642
-0.06647877 0.004651642 -0.19174534 0.11584014 0.08951482 0.25905263 -0.029526237 0.19415748
0.11818961 0.21817142 -0.3439586 0.025179507 0.15493849 -0.04320078 0.028039638 -0.12847415
0.059132766 0.07196178 -0.026207684 0.12661868 -0.07261194 0.25235066 0.19795384 0.10216974
0.03429536 -0.72876245 0.32184628 0.041301332 -0.04275678 0.53416777 -0.12359228 0.34026664
-0.038256545 0.0937958 0.048871297 0.1507703 0.022444969 -0.1263747 0.06395482 0.3208239
-0.09937989 0.4939547 -0.20865835 -0.012692621 0.5233225 0.17320523 0.23414195 0.20813128
0.0005675642 0.16444495 0.1930471 -0.18781969 -0.17954095 0.36105692 0.09908127 0.11590126
-0.04264266 0.12548581 0.1907146 0.07169192 -0.12850304 0.056513462 0.08529536 -0.043517843
0.14610721 -0.13528219 0.07466317 0.018438373 -0.028744895 0.12991078 -0.08535016 0.2537148
0.24854517 0.23410459 0.10558085 -0.92699736 0.23857751 0.23457184 0.01976869 0.58726805
0.03295443 0.07590311 0.03455401 0.15393198 0.089634836 0.05947788 0.13776188 -0.07194991

bias f4 [25]
00000000: d060 8abe 2fc2 41be 1edb a6bd df49 6abe
00000010: c002 4dbe 39cf 5cbd 2fc8 70be 2aa3 92be
00000020: 0262 96bd 9b0c ffbd 9300 acbc e052 333e
00000030: aadc 7b3d 4d71 febd e7a3 9fbd 8b27 f1bd
00000040: 453b 82be df73 2a3d 1386 6dbe a03f 56be
00000050: 4f8b 093e 39b6 c73d a4cf 603e 0d88 77be
00000060: 798f f8bd
-0.27026987 -0.18921731 -0.08147262 -0.22879742 -0.2002058 -0.05390856 -0.23513864 -0.2864011
-0.07342912 -0.12453576 -0.020996368 0.17512083 0.06148974 -0.12423954 -0.07794934 -0.1177512
-0.25435844 0.04161441 -0.23195677 -0.20922709 0.13432048 0.09751553 0.21954209 -0.24172993
-0.1213674

weight f4 [1, 25]
00000000: 0288 e3bb c996 963c 7c2d d6bc 2a3a 42bb
00000010: 97e0 95bc 4b2b 3cbb 8167 c53b cec6 c1bc
00000020: 0db3 cd3a 2ac7 a6bc 8843 303b 97d8 a8be
00000030: 01f3 ca3e 2e39 86b8 2427 66bc 9248 df3c
00000040: 091f 9a3c 35d7 073e 0629 debb 3c1e 35bc
00000050: 24e5 5bbe dc4f d73e 5bd6 d33e 5d68 d13b
00000060: aae3 95ba
-0.0069437036 0.018382447 -0.026144736 -0.002963672 -0.01829557 -0.0028712328 0.0060243015 -0.023654368
0.001569362 -0.02035864 0.002689572 -0.32977745 0.39638522 -6.4002685e-05 -0.014047418 0.027256284
0.018813627 0.13265689 -0.0067797927 -0.011054572 -0.21474129 0.42053115 0.41374478 0.006390615
-0.0011435647
